: DistributedDataParallel(
  (module): UNetSpatioTemporalConditionModel(
    (conv_in): Conv2d(8, 320, kernel_size=(3, 3), stride=(1, 1), padding=(1, 1))
    (time_proj): Timesteps()
    (time_embedding): TimestepEmbedding(
      (linear_1): Linear(in_features=320, out_features=1280, bias=True)
      (act): SiLU()
      (linear_2): Linear(in_features=1280, out_features=1280, bias=True)
    )
    (add_time_proj): Timesteps()
    (add_embedding): TimestepEmbedding(
      (linear_1): Linear(in_features=768, out_features=1280, bias=True)
      (act): SiLU()
      (linear_2): Linear(in_features=1280, out_features=1280, bias=True)
    )
    (down_blocks): ModuleList(
      (0): CrossAttnDownBlockSpatioTemporal(
        (attentions): ModuleList(
          (0-1): 2 x TransformerSpatioTemporalModel(
            (norm): GroupNorm(32, 320, eps=1e-06, affine=True)
            (proj_in): Linear(in_features=320, out_features=320, bias=True)
            (transformer_blocks): ModuleList(
              (0): BasicTransformerBlock(
                (norm1): LayerNorm((320,), eps=1e-05, elementwise_affine=True)
                (attn1): Attention(
                  (to_q): Linear(in_features=320, out_features=320, bias=False)
                  (to_k): Linear(in_features=320, out_features=320, bias=False)
                  (to_v): Linear(in_features=320, out_features=320, bias=False)
                  (to_out): ModuleList(
                    (0): Linear(in_features=320, out_features=320, bias=True)
                    (1): Dropout(p=0.0, inplace=False)
                  )
                  (processor): AnimationAttnProcessor()
                )
                (norm2): LayerNorm((320,), eps=1e-05, elementwise_affine=True)
                (attn2): Attention(
                  (to_q): Linear(in_features=320, out_features=320, bias=False)
                  (to_k): Linear(in_features=1024, out_features=320, bias=False)
                  (to_v): Linear(in_features=1024, out_features=320, bias=False)
                  (to_out): ModuleList(
                    (0): Linear(in_features=320, out_features=320, bias=True)
                    (1): Dropout(p=0.0, inplace=False)
                  )
                  (processor): AnimationIDAttnNormalizedProcessor(
                    (id_to_k): Linear(in_features=1024, out_features=320, bias=False)
                    (id_to_v): Linear(in_features=1024, out_features=320, bias=False)
                  )
                )
                (norm3): LayerNorm((320,), eps=1e-05, elementwise_affine=True)
                (ff): FeedForward(
                  (net): ModuleList(
                    (0): GEGLU(
                      (proj): Linear(in_features=320, out_features=2560, bias=True)
                    )
                    (1): Dropout(p=0.0, inplace=False)
                    (2): Linear(in_features=1280, out_features=320, bias=True)
                  )
                )
              )
            )
            (temporal_transformer_blocks): ModuleList(
              (0): TemporalBasicTransformerBlock(
                (norm_in): LayerNorm((320,), eps=1e-05, elementwise_affine=True)
                (ff_in): FeedForward(
                  (net): ModuleList(
                    (0): GEGLU(
                      (proj): Linear(in_features=320, out_features=2560, bias=True)
                    )
                    (1): Dropout(p=0.0, inplace=False)
                    (2): Linear(in_features=1280, out_features=320, bias=True)
                  )
                )
                (norm1): LayerNorm((320,), eps=1e-05, elementwise_affine=True)
                (attn1): Attention(
                  (to_q): Linear(in_features=320, out_features=320, bias=False)
                  (to_k): Linear(in_features=320, out_features=320, bias=False)
                  (to_v): Linear(in_features=320, out_features=320, bias=False)
                  (to_out): ModuleList(
                    (0): Linear(in_features=320, out_features=320, bias=True)
                    (1): Dropout(p=0.0, inplace=False)
                  )
                )
                (norm2): LayerNorm((320,), eps=1e-05, elementwise_affine=True)
                (attn2): Attention(
                  (to_q): Linear(in_features=320, out_features=320, bias=False)
                  (to_k): Linear(in_features=1024, out_features=320, bias=False)
                  (to_v): Linear(in_features=1024, out_features=320, bias=False)
                  (to_out): ModuleList(
                    (0): Linear(in_features=320, out_features=320, bias=True)
                    (1): Dropout(p=0.0, inplace=False)
                  )
                )
                (norm3): LayerNorm((320,), eps=1e-05, elementwise_affine=True)
                (ff): FeedForward(
                  (net): ModuleList(
                    (0): GEGLU(
                      (proj): Linear(in_features=320, out_features=2560, bias=True)
                    )
                    (1): Dropout(p=0.0, inplace=False)
                    (2): Linear(in_features=1280, out_features=320, bias=True)
                  )
                )
              )
            )
            (time_pos_embed): TimestepEmbedding(
              (linear_1): Linear(in_features=320, out_features=1280, bias=True)
              (act): SiLU()
              (linear_2): Linear(in_features=1280, out_features=320, bias=True)
            )
            (time_proj): Timesteps()
            (time_mixer): AlphaBlender()
            (proj_out): Linear(in_features=320, out_features=320, bias=True)
          )
        )
        (resnets): ModuleList(
          (0-1): 2 x SpatioTemporalResBlock(
            (spatial_res_block): ResnetBlock2D(
              (norm1): GroupNorm(32, 320, eps=1e-06, affine=True)
              (conv1): Conv2d(320, 320, kernel_size=(3, 3), stride=(1, 1), padding=(1, 1))
              (time_emb_proj): Linear(in_features=1280, out_features=320, bias=True)
              (norm2): GroupNorm(32, 320, eps=1e-06, affine=True)
              (dropout): Dropout(p=0.0, inplace=False)
              (conv2): Conv2d(320, 320, kernel_size=(3, 3), stride=(1, 1), padding=(1, 1))
              (nonlinearity): SiLU()
            )
            (temporal_res_block): TemporalResnetBlock(
              (norm1): GroupNorm(32, 320, eps=1e-06, affine=True)
              (conv1): Conv3d(320, 320, kernel_size=(3, 1, 1), stride=(1, 1, 1), padding=(1, 0, 0))
              (time_emb_proj): Linear(in_features=1280, out_features=320, bias=True)
              (norm2): GroupNorm(32, 320, eps=1e-06, affine=True)
              (dropout): Dropout(p=0.0, inplace=False)
              (conv2): Conv3d(320, 320, kernel_size=(3, 1, 1), stride=(1, 1, 1), padding=(1, 0, 0))
              (nonlinearity): SiLU()
            )
            (time_mixer): AlphaBlender()
          )
        )
        (downsamplers): ModuleList(
          (0): Downsample2D(
            (conv): Conv2d(320, 320, kernel_size=(3, 3), stride=(2, 2), padding=(1, 1))
          )
        )
      )
      (1): CrossAttnDownBlockSpatioTemporal(
        (attentions): ModuleList(
          (0-1): 2 x TransformerSpatioTemporalModel(
            (norm): GroupNorm(32, 640, eps=1e-06, affine=True)
            (proj_in): Linear(in_features=640, out_features=640, bias=True)
            (transformer_blocks): ModuleList(
              (0): BasicTransformerBlock(
                (norm1): LayerNorm((640,), eps=1e-05, elementwise_affine=True)
                (attn1): Attention(
                  (to_q): Linear(in_features=640, out_features=640, bias=False)
                  (to_k): Linear(in_features=640, out_features=640, bias=False)
                  (to_v): Linear(in_features=640, out_features=640, bias=False)
                  (to_out): ModuleList(
                    (0): Linear(in_features=640, out_features=640, bias=True)
                    (1): Dropout(p=0.0, inplace=False)
                  )
                  (processor): AnimationAttnProcessor()
                )
                (norm2): LayerNorm((640,), eps=1e-05, elementwise_affine=True)
                (attn2): Attention(
                  (to_q): Linear(in_features=640, out_features=640, bias=False)
                  (to_k): Linear(in_features=1024, out_features=640, bias=False)
                  (to_v): Linear(in_features=1024, out_features=640, bias=False)
                  (to_out): ModuleList(
                    (0): Linear(in_features=640, out_features=640, bias=True)
                    (1): Dropout(p=0.0, inplace=False)
                  )
                  (processor): AnimationIDAttnNormalizedProcessor(
                    (id_to_k): Linear(in_features=1024, out_features=640, bias=False)
                    (id_to_v): Linear(in_features=1024, out_features=640, bias=False)
                  )
                )
                (norm3): LayerNorm((640,), eps=1e-05, elementwise_affine=True)
                (ff): FeedForward(
                  (net): ModuleList(
                    (0): GEGLU(
                      (proj): Linear(in_features=640, out_features=5120, bias=True)
                    )
                    (1): Dropout(p=0.0, inplace=False)
                    (2): Linear(in_features=2560, out_features=640, bias=True)
                  )
                )
              )
            )
            (temporal_transformer_blocks): ModuleList(
              (0): TemporalBasicTransformerBlock(
                (norm_in): LayerNorm((640,), eps=1e-05, elementwise_affine=True)
                (ff_in): FeedForward(
                  (net): ModuleList(
                    (0): GEGLU(
                      (proj): Linear(in_features=640, out_features=5120, bias=True)
                    )
                    (1): Dropout(p=0.0, inplace=False)
                    (2): Linear(in_features=2560, out_features=640, bias=True)
                  )
                )
                (norm1): LayerNorm((640,), eps=1e-05, elementwise_affine=True)
                (attn1): Attention(
                  (to_q): Linear(in_features=640, out_features=640, bias=False)
                  (to_k): Linear(in_features=640, out_features=640, bias=False)
                  (to_v): Linear(in_features=640, out_features=640, bias=False)
                  (to_out): ModuleList(
                    (0): Linear(in_features=640, out_features=640, bias=True)
                    (1): Dropout(p=0.0, inplace=False)
                  )
                )
                (norm2): LayerNorm((640,), eps=1e-05, elementwise_affine=True)
                (attn2): Attention(
                  (to_q): Linear(in_features=640, out_features=640, bias=False)
                  (to_k): Linear(in_features=1024, out_features=640, bias=False)
                  (to_v): Linear(in_features=1024, out_features=640, bias=False)
                  (to_out): ModuleList(
                    (0): Linear(in_features=640, out_features=640, bias=True)
                    (1): Dropout(p=0.0, inplace=False)
                  )
                )
                (norm3): LayerNorm((640,), eps=1e-05, elementwise_affine=True)
                (ff): FeedForward(
                  (net): ModuleList(
                    (0): GEGLU(
                      (proj): Linear(in_features=640, out_features=5120, bias=True)
                    )
                    (1): Dropout(p=0.0, inplace=False)
                    (2): Linear(in_features=2560, out_features=640, bias=True)
                  )
                )
              )
            )
            (time_pos_embed): TimestepEmbedding(
              (linear_1): Linear(in_features=640, out_features=2560, bias=True)
              (act): SiLU()
              (linear_2): Linear(in_features=2560, out_features=640, bias=True)
            )
            (time_proj): Timesteps()
            (time_mixer): AlphaBlender()
            (proj_out): Linear(in_features=640, out_features=640, bias=True)
          )
        )
        (resnets): ModuleList(
          (0): SpatioTemporalResBlock(
            (spatial_res_block): ResnetBlock2D(
              (norm1): GroupNorm(32, 320, eps=1e-06, affine=True)
              (conv1): Conv2d(320, 640, kernel_size=(3, 3), stride=(1, 1), padding=(1, 1))
              (time_emb_proj): Linear(in_features=1280, out_features=640, bias=True)
              (norm2): GroupNorm(32, 640, eps=1e-06, affine=True)
              (dropout): Dropout(p=0.0, inplace=False)
              (conv2): Conv2d(640, 640, kernel_size=(3, 3), stride=(1, 1), padding=(1, 1))
              (nonlinearity): SiLU()
              (conv_shortcut): Conv2d(320, 640, kernel_size=(1, 1), stride=(1, 1))
            )
            (temporal_res_block): TemporalResnetBlock(
              (norm1): GroupNorm(32, 640, eps=1e-06, affine=True)
              (conv1): Conv3d(640, 640, kernel_size=(3, 1, 1), stride=(1, 1, 1), padding=(1, 0, 0))
              (time_emb_proj): Linear(in_features=1280, out_features=640, bias=True)
              (norm2): GroupNorm(32, 640, eps=1e-06, affine=True)
              (dropout): Dropout(p=0.0, inplace=False)
              (conv2): Conv3d(640, 640, kernel_size=(3, 1, 1), stride=(1, 1, 1), padding=(1, 0, 0))
              (nonlinearity): SiLU()
            )
            (time_mixer): AlphaBlender()
          )
          (1): SpatioTemporalResBlock(
            (spatial_res_block): ResnetBlock2D(
              (norm1): GroupNorm(32, 640, eps=1e-06, affine=True)
              (conv1): Conv2d(640, 640, kernel_size=(3, 3), stride=(1, 1), padding=(1, 1))
              (time_emb_proj): Linear(in_features=1280, out_features=640, bias=True)
              (norm2): GroupNorm(32, 640, eps=1e-06, affine=True)
              (dropout): Dropout(p=0.0, inplace=False)
              (conv2): Conv2d(640, 640, kernel_size=(3, 3), stride=(1, 1), padding=(1, 1))
              (nonlinearity): SiLU()
            )
            (temporal_res_block): TemporalResnetBlock(
              (norm1): GroupNorm(32, 640, eps=1e-06, affine=True)
              (conv1): Conv3d(640, 640, kernel_size=(3, 1, 1), stride=(1, 1, 1), padding=(1, 0, 0))
              (time_emb_proj): Linear(in_features=1280, out_features=640, bias=True)
              (norm2): GroupNorm(32, 640, eps=1e-06, affine=True)
              (dropout): Dropout(p=0.0, inplace=False)
              (conv2): Conv3d(640, 640, kernel_size=(3, 1, 1), stride=(1, 1, 1), padding=(1, 0, 0))
              (nonlinearity): SiLU()
            )
            (time_mixer): AlphaBlender()
          )
        )
        (downsamplers): ModuleList(
          (0): Downsample2D(
            (conv): Conv2d(640, 640, kernel_size=(3, 3), stride=(2, 2), padding=(1, 1))
          )
        )
      )
      (2): CrossAttnDownBlockSpatioTemporal(
        (attentions): ModuleList(
          (0-1): 2 x TransformerSpatioTemporalModel(
            (norm): GroupNorm(32, 1280, eps=1e-06, affine=True)
            (proj_in): Linear(in_features=1280, out_features=1280, bias=True)
            (transformer_blocks): ModuleList(
              (0): BasicTransformerBlock(
                (norm1): LayerNorm((1280,), eps=1e-05, elementwise_affine=True)
                (attn1): Attention(
                  (to_q): Linear(in_features=1280, out_features=1280, bias=False)
                  (to_k): Linear(in_features=1280, out_features=1280, bias=False)
                  (to_v): Linear(in_features=1280, out_features=1280, bias=False)
                  (to_out): ModuleList(
                    (0): Linear(in_features=1280, out_features=1280, bias=True)
                    (1): Dropout(p=0.0, inplace=False)
                  )
                  (processor): AnimationAttnProcessor()
                )
                (norm2): LayerNorm((1280,), eps=1e-05, elementwise_affine=True)
                (attn2): Attention(
                  (to_q): Linear(in_features=1280, out_features=1280, bias=False)
                  (to_k): Linear(in_features=1024, out_features=1280, bias=False)
                  (to_v): Linear(in_features=1024, out_features=1280, bias=False)
                  (to_out): ModuleList(
                    (0): Linear(in_features=1280, out_features=1280, bias=True)
                    (1): Dropout(p=0.0, inplace=False)
                  )
                  (processor): AnimationIDAttnNormalizedProcessor(
                    (id_to_k): Linear(in_features=1024, out_features=1280, bias=False)
                    (id_to_v): Linear(in_features=1024, out_features=1280, bias=False)
                  )
                )
                (norm3): LayerNorm((1280,), eps=1e-05, elementwise_affine=True)
                (ff): FeedForward(
                  (net): ModuleList(
                    (0): GEGLU(
                      (proj): Linear(in_features=1280, out_features=10240, bias=True)
                    )
                    (1): Dropout(p=0.0, inplace=False)
                    (2): Linear(in_features=5120, out_features=1280, bias=True)
                  )
                )
              )
            )
            (temporal_transformer_blocks): ModuleList(
              (0): TemporalBasicTransformerBlock(
                (norm_in): LayerNorm((1280,), eps=1e-05, elementwise_affine=True)
                (ff_in): FeedForward(
                  (net): ModuleList(
                    (0): GEGLU(
                      (proj): Linear(in_features=1280, out_features=10240, bias=True)
                    )
                    (1): Dropout(p=0.0, inplace=False)
                    (2): Linear(in_features=5120, out_features=1280, bias=True)
                  )
                )
                (norm1): LayerNorm((1280,), eps=1e-05, elementwise_affine=True)
                (attn1): Attention(
                  (to_q): Linear(in_features=1280, out_features=1280, bias=False)
                  (to_k): Linear(in_features=1280, out_features=1280, bias=False)
                  (to_v): Linear(in_features=1280, out_features=1280, bias=False)
                  (to_out): ModuleList(
                    (0): Linear(in_features=1280, out_features=1280, bias=True)
                    (1): Dropout(p=0.0, inplace=False)
                  )
                )
                (norm2): LayerNorm((1280,), eps=1e-05, elementwise_affine=True)
                (attn2): Attention(
                  (to_q): Linear(in_features=1280, out_features=1280, bias=False)
                  (to_k): Linear(in_features=1024, out_features=1280, bias=False)
                  (to_v): Linear(in_features=1024, out_features=1280, bias=False)
                  (to_out): ModuleList(
                    (0): Linear(in_features=1280, out_features=1280, bias=True)
                    (1): Dropout(p=0.0, inplace=False)
                  )
                )
                (norm3): LayerNorm((1280,), eps=1e-05, elementwise_affine=True)
                (ff): FeedForward(
                  (net): ModuleList(
                    (0): GEGLU(
                      (proj): Linear(in_features=1280, out_features=10240, bias=True)
                    )
                    (1): Dropout(p=0.0, inplace=False)
                    (2): Linear(in_features=5120, out_features=1280, bias=True)
                  )
                )
              )
            )
            (time_pos_embed): TimestepEmbedding(
              (linear_1): Linear(in_features=1280, out_features=5120, bias=True)
              (act): SiLU()
              (linear_2): Linear(in_features=5120, out_features=1280, bias=True)
            )
            (time_proj): Timesteps()
            (time_mixer): AlphaBlender()
            (proj_out): Linear(in_features=1280, out_features=1280, bias=True)
          )
        )
        (resnets): ModuleList(
          (0): SpatioTemporalResBlock(
            (spatial_res_block): ResnetBlock2D(
              (norm1): GroupNorm(32, 640, eps=1e-06, affine=True)
              (conv1): Conv2d(640, 1280, kernel_size=(3, 3), stride=(1, 1), padding=(1, 1))
              (time_emb_proj): Linear(in_features=1280, out_features=1280, bias=True)
              (norm2): GroupNorm(32, 1280, eps=1e-06, affine=True)
              (dropout): Dropout(p=0.0, inplace=False)
              (conv2): Conv2d(1280, 1280, kernel_size=(3, 3), stride=(1, 1), padding=(1, 1))
              (nonlinearity): SiLU()
              (conv_shortcut): Conv2d(640, 1280, kernel_size=(1, 1), stride=(1, 1))
            )
            (temporal_res_block): TemporalResnetBlock(
              (norm1): GroupNorm(32, 1280, eps=1e-06, affine=True)
              (conv1): Conv3d(1280, 1280, kernel_size=(3, 1, 1), stride=(1, 1, 1), padding=(1, 0, 0))
              (time_emb_proj): Linear(in_features=1280, out_features=1280, bias=True)
              (norm2): GroupNorm(32, 1280, eps=1e-06, affine=True)
              (dropout): Dropout(p=0.0, inplace=False)
              (conv2): Conv3d(1280, 1280, kernel_size=(3, 1, 1), stride=(1, 1, 1), padding=(1, 0, 0))
              (nonlinearity): SiLU()
            )
            (time_mixer): AlphaBlender()
          )
          (1): SpatioTemporalResBlock(
            (spatial_res_block): ResnetBlock2D(
              (norm1): GroupNorm(32, 1280, eps=1e-06, affine=True)
              (conv1): Conv2d(1280, 1280, kernel_size=(3, 3), stride=(1, 1), padding=(1, 1))
              (time_emb_proj): Linear(in_features=1280, out_features=1280, bias=True)
              (norm2): GroupNorm(32, 1280, eps=1e-06, affine=True)
              (dropout): Dropout(p=0.0, inplace=False)
              (conv2): Conv2d(1280, 1280, kernel_size=(3, 3), stride=(1, 1), padding=(1, 1))
              (nonlinearity): SiLU()
            )
            (temporal_res_block): TemporalResnetBlock(
              (norm1): GroupNorm(32, 1280, eps=1e-06, affine=True)
              (conv1): Conv3d(1280, 1280, kernel_size=(3, 1, 1), stride=(1, 1, 1), padding=(1, 0, 0))
              (time_emb_proj): Linear(in_features=1280, out_features=1280, bias=True)
              (norm2): GroupNorm(32, 1280, eps=1e-06, affine=True)
              (dropout): Dropout(p=0.0, inplace=False)
              (conv2): Conv3d(1280, 1280, kernel_size=(3, 1, 1), stride=(1, 1, 1), padding=(1, 0, 0))
              (nonlinearity): SiLU()
            )
            (time_mixer): AlphaBlender()
          )
        )
        (downsamplers): ModuleList(
          (0): Downsample2D(
            (conv): Conv2d(1280, 1280, kernel_size=(3, 3), stride=(2, 2), padding=(1, 1))
          )
        )
      )
      (3): DownBlockSpatioTemporal(
        (resnets): ModuleList(
          (0-1): 2 x SpatioTemporalResBlock(
            (spatial_res_block): ResnetBlock2D(
              (norm1): GroupNorm(32, 1280, eps=1e-05, affine=True)
              (conv1): Conv2d(1280, 1280, kernel_size=(3, 3), stride=(1, 1), padding=(1, 1))
              (time_emb_proj): Linear(in_features=1280, out_features=1280, bias=True)
              (norm2): GroupNorm(32, 1280, eps=1e-05, affine=True)
              (dropout): Dropout(p=0.0, inplace=False)
              (conv2): Conv2d(1280, 1280, kernel_size=(3, 3), stride=(1, 1), padding=(1, 1))
              (nonlinearity): SiLU()
            )
            (temporal_res_block): TemporalResnetBlock(
              (norm1): GroupNorm(32, 1280, eps=1e-05, affine=True)
              (conv1): Conv3d(1280, 1280, kernel_size=(3, 1, 1), stride=(1, 1, 1), padding=(1, 0, 0))
              (time_emb_proj): Linear(in_features=1280, out_features=1280, bias=True)
              (norm2): GroupNorm(32, 1280, eps=1e-05, affine=True)
              (dropout): Dropout(p=0.0, inplace=False)
              (conv2): Conv3d(1280, 1280, kernel_size=(3, 1, 1), stride=(1, 1, 1), padding=(1, 0, 0))
              (nonlinearity): SiLU()
            )
            (time_mixer): AlphaBlender()
          )
        )
      )
    )
    (up_blocks): ModuleList(
      (0): UpBlockSpatioTemporal(
        (resnets): ModuleList(
          (0-2): 3 x SpatioTemporalResBlock(
            (spatial_res_block): ResnetBlock2D(
              (norm1): GroupNorm(32, 2560, eps=1e-06, affine=True)
              (conv1): Conv2d(2560, 1280, kernel_size=(3, 3), stride=(1, 1), padding=(1, 1))
              (time_emb_proj): Linear(in_features=1280, out_features=1280, bias=True)
              (norm2): GroupNorm(32, 1280, eps=1e-06, affine=True)
              (dropout): Dropout(p=0.0, inplace=False)
              (conv2): Conv2d(1280, 1280, kernel_size=(3, 3), stride=(1, 1), padding=(1, 1))
              (nonlinearity): SiLU()
              (conv_shortcut): Conv2d(2560, 1280, kernel_size=(1, 1), stride=(1, 1))
            )
            (temporal_res_block): TemporalResnetBlock(
              (norm1): GroupNorm(32, 1280, eps=1e-06, affine=True)
              (conv1): Conv3d(1280, 1280, kernel_size=(3, 1, 1), stride=(1, 1, 1), padding=(1, 0, 0))
              (time_emb_proj): Linear(in_features=1280, out_features=1280, bias=True)
              (norm2): GroupNorm(32, 1280, eps=1e-06, affine=True)
              (dropout): Dropout(p=0.0, inplace=False)
              (conv2): Conv3d(1280, 1280, kernel_size=(3, 1, 1), stride=(1, 1, 1), padding=(1, 0, 0))
              (nonlinearity): SiLU()
            )
            (time_mixer): AlphaBlender()
          )
        )
        (upsamplers): ModuleList(
          (0): Upsample2D(
            (conv): Conv2d(1280, 1280, kernel_size=(3, 3), stride=(1, 1), padding=(1, 1))
          )
        )
      )
      (1): CrossAttnUpBlockSpatioTemporal(
        (attentions): ModuleList(
          (0-2): 3 x TransformerSpatioTemporalModel(
            (norm): GroupNorm(32, 1280, eps=1e-06, affine=True)
            (proj_in): Linear(in_features=1280, out_features=1280, bias=True)
            (transformer_blocks): ModuleList(
              (0): BasicTransformerBlock(
                (norm1): LayerNorm((1280,), eps=1e-05, elementwise_affine=True)
                (attn1): Attention(
                  (to_q): Linear(in_features=1280, out_features=1280, bias=False)
                  (to_k): Linear(in_features=1280, out_features=1280, bias=False)
                  (to_v): Linear(in_features=1280, out_features=1280, bias=False)
                  (to_out): ModuleList(
                    (0): Linear(in_features=1280, out_features=1280, bias=True)
                    (1): Dropout(p=0.0, inplace=False)
                  )
                  (processor): AnimationAttnProcessor()
                )
                (norm2): LayerNorm((1280,), eps=1e-05, elementwise_affine=True)
                (attn2): Attention(
                  (to_q): Linear(in_features=1280, out_features=1280, bias=False)
                  (to_k): Linear(in_features=1024, out_features=1280, bias=False)
                  (to_v): Linear(in_features=1024, out_features=1280, bias=False)
                  (to_out): ModuleList(
                    (0): Linear(in_features=1280, out_features=1280, bias=True)
                    (1): Dropout(p=0.0, inplace=False)
                  )
                  (processor): AnimationIDAttnNormalizedProcessor(
                    (id_to_k): Linear(in_features=1024, out_features=1280, bias=False)
                    (id_to_v): Linear(in_features=1024, out_features=1280, bias=False)
                  )
                )
                (norm3): LayerNorm((1280,), eps=1e-05, elementwise_affine=True)
                (ff): FeedForward(
                  (net): ModuleList(
                    (0): GEGLU(
                      (proj): Linear(in_features=1280, out_features=10240, bias=True)
                    )
                    (1): Dropout(p=0.0, inplace=False)
                    (2): Linear(in_features=5120, out_features=1280, bias=True)
                  )
                )
              )
            )
            (temporal_transformer_blocks): ModuleList(
              (0): TemporalBasicTransformerBlock(
                (norm_in): LayerNorm((1280,), eps=1e-05, elementwise_affine=True)
                (ff_in): FeedForward(
                  (net): ModuleList(
                    (0): GEGLU(
                      (proj): Linear(in_features=1280, out_features=10240, bias=True)
                    )
                    (1): Dropout(p=0.0, inplace=False)
                    (2): Linear(in_features=5120, out_features=1280, bias=True)
                  )
                )
                (norm1): LayerNorm((1280,), eps=1e-05, elementwise_affine=True)
                (attn1): Attention(
                  (to_q): Linear(in_features=1280, out_features=1280, bias=False)
                  (to_k): Linear(in_features=1280, out_features=1280, bias=False)
                  (to_v): Linear(in_features=1280, out_features=1280, bias=False)
                  (to_out): ModuleList(
                    (0): Linear(in_features=1280, out_features=1280, bias=True)
                    (1): Dropout(p=0.0, inplace=False)
                  )
                )
                (norm2): LayerNorm((1280,), eps=1e-05, elementwise_affine=True)
                (attn2): Attention(
                  (to_q): Linear(in_features=1280, out_features=1280, bias=False)
                  (to_k): Linear(in_features=1024, out_features=1280, bias=False)
                  (to_v): Linear(in_features=1024, out_features=1280, bias=False)
                  (to_out): ModuleList(
                    (0): Linear(in_features=1280, out_features=1280, bias=True)
                    (1): Dropout(p=0.0, inplace=False)
                  )
                )
                (norm3): LayerNorm((1280,), eps=1e-05, elementwise_affine=True)
                (ff): FeedForward(
                  (net): ModuleList(
                    (0): GEGLU(
                      (proj): Linear(in_features=1280, out_features=10240, bias=True)
                    )
                    (1): Dropout(p=0.0, inplace=False)
                    (2): Linear(in_features=5120, out_features=1280, bias=True)
                  )
                )
              )
            )
            (time_pos_embed): TimestepEmbedding(
              (linear_1): Linear(in_features=1280, out_features=5120, bias=True)
              (act): SiLU()
              (linear_2): Linear(in_features=5120, out_features=1280, bias=True)
            )
            (time_proj): Timesteps()
            (time_mixer): AlphaBlender()
            (proj_out): Linear(in_features=1280, out_features=1280, bias=True)
          )
        )
        (resnets): ModuleList(
          (0-1): 2 x SpatioTemporalResBlock(
            (spatial_res_block): ResnetBlock2D(
              (norm1): GroupNorm(32, 2560, eps=1e-06, affine=True)
              (conv1): Conv2d(2560, 1280, kernel_size=(3, 3), stride=(1, 1), padding=(1, 1))
              (time_emb_proj): Linear(in_features=1280, out_features=1280, bias=True)
              (norm2): GroupNorm(32, 1280, eps=1e-06, affine=True)
              (dropout): Dropout(p=0.0, inplace=False)
              (conv2): Conv2d(1280, 1280, kernel_size=(3, 3), stride=(1, 1), padding=(1, 1))
              (nonlinearity): SiLU()
              (conv_shortcut): Conv2d(2560, 1280, kernel_size=(1, 1), stride=(1, 1))
            )
            (temporal_res_block): TemporalResnetBlock(
              (norm1): GroupNorm(32, 1280, eps=1e-06, affine=True)
              (conv1): Conv3d(1280, 1280, kernel_size=(3, 1, 1), stride=(1, 1, 1), padding=(1, 0, 0))
              (time_emb_proj): Linear(in_features=1280, out_features=1280, bias=True)
              (norm2): GroupNorm(32, 1280, eps=1e-06, affine=True)
              (dropout): Dropout(p=0.0, inplace=False)
              (conv2): Conv3d(1280, 1280, kernel_size=(3, 1, 1), stride=(1, 1, 1), padding=(1, 0, 0))
              (nonlinearity): SiLU()
            )
            (time_mixer): AlphaBlender()
          )
          (2): SpatioTemporalResBlock(
            (spatial_res_block): ResnetBlock2D(
              (norm1): GroupNorm(32, 1920, eps=1e-06, affine=True)
              (conv1): Conv2d(1920, 1280, kernel_size=(3, 3), stride=(1, 1), padding=(1, 1))
              (time_emb_proj): Linear(in_features=1280, out_features=1280, bias=True)
              (norm2): GroupNorm(32, 1280, eps=1e-06, affine=True)
              (dropout): Dropout(p=0.0, inplace=False)
              (conv2): Conv2d(1280, 1280, kernel_size=(3, 3), stride=(1, 1), padding=(1, 1))
              (nonlinearity): SiLU()
              (conv_shortcut): Conv2d(1920, 1280, kernel_size=(1, 1), stride=(1, 1))
            )
            (temporal_res_block): TemporalResnetBlock(
              (norm1): GroupNorm(32, 1280, eps=1e-06, affine=True)
              (conv1): Conv3d(1280, 1280, kernel_size=(3, 1, 1), stride=(1, 1, 1), padding=(1, 0, 0))
              (time_emb_proj): Linear(in_features=1280, out_features=1280, bias=True)
              (norm2): GroupNorm(32, 1280, eps=1e-06, affine=True)
              (dropout): Dropout(p=0.0, inplace=False)
              (conv2): Conv3d(1280, 1280, kernel_size=(3, 1, 1), stride=(1, 1, 1), padding=(1, 0, 0))
              (nonlinearity): SiLU()
            )
            (time_mixer): AlphaBlender()
          )
        )
        (upsamplers): ModuleList(
          (0): Upsample2D(
            (conv): Conv2d(1280, 1280, kernel_size=(3, 3), stride=(1, 1), padding=(1, 1))
          )
        )
      )
      (2): CrossAttnUpBlockSpatioTemporal(
        (attentions): ModuleList(
          (0-2): 3 x TransformerSpatioTemporalModel(
            (norm): GroupNorm(32, 640, eps=1e-06, affine=True)
            (proj_in): Linear(in_features=640, out_features=640, bias=True)
            (transformer_blocks): ModuleList(
              (0): BasicTransformerBlock(
                (norm1): LayerNorm((640,), eps=1e-05, elementwise_affine=True)
                (attn1): Attention(
                  (to_q): Linear(in_features=640, out_features=640, bias=False)
                  (to_k): Linear(in_features=640, out_features=640, bias=False)
                  (to_v): Linear(in_features=640, out_features=640, bias=False)
                  (to_out): ModuleList(
                    (0): Linear(in_features=640, out_features=640, bias=True)
                    (1): Dropout(p=0.0, inplace=False)
                  )
                  (processor): AnimationAttnProcessor()
                )
                (norm2): LayerNorm((640,), eps=1e-05, elementwise_affine=True)
                (attn2): Attention(
                  (to_q): Linear(in_features=640, out_features=640, bias=False)
                  (to_k): Linear(in_features=1024, out_features=640, bias=False)
                  (to_v): Linear(in_features=1024, out_features=640, bias=False)
                  (to_out): ModuleList(
                    (0): Linear(in_features=640, out_features=640, bias=True)
                    (1): Dropout(p=0.0, inplace=False)
                  )
                  (processor): AnimationIDAttnNormalizedProcessor(
                    (id_to_k): Linear(in_features=1024, out_features=640, bias=False)
                    (id_to_v): Linear(in_features=1024, out_features=640, bias=False)
                  )
                )
                (norm3): LayerNorm((640,), eps=1e-05, elementwise_affine=True)
                (ff): FeedForward(
                  (net): ModuleList(
                    (0): GEGLU(
                      (proj): Linear(in_features=640, out_features=5120, bias=True)
                    )
                    (1): Dropout(p=0.0, inplace=False)
                    (2): Linear(in_features=2560, out_features=640, bias=True)
                  )
                )
              )
            )
            (temporal_transformer_blocks): ModuleList(
              (0): TemporalBasicTransformerBlock(
                (norm_in): LayerNorm((640,), eps=1e-05, elementwise_affine=True)
                (ff_in): FeedForward(
                  (net): ModuleList(
                    (0): GEGLU(
                      (proj): Linear(in_features=640, out_features=5120, bias=True)
                    )
                    (1): Dropout(p=0.0, inplace=False)
                    (2): Linear(in_features=2560, out_features=640, bias=True)
                  )
                )
                (norm1): LayerNorm((640,), eps=1e-05, elementwise_affine=True)
                (attn1): Attention(
                  (to_q): Linear(in_features=640, out_features=640, bias=False)
                  (to_k): Linear(in_features=640, out_features=640, bias=False)
                  (to_v): Linear(in_features=640, out_features=640, bias=False)
                  (to_out): ModuleList(
                    (0): Linear(in_features=640, out_features=640, bias=True)
                    (1): Dropout(p=0.0, inplace=False)
                  )
                )
                (norm2): LayerNorm((640,), eps=1e-05, elementwise_affine=True)
                (attn2): Attention(
                  (to_q): Linear(in_features=640, out_features=640, bias=False)
                  (to_k): Linear(in_features=1024, out_features=640, bias=False)
                  (to_v): Linear(in_features=1024, out_features=640, bias=False)
                  (to_out): ModuleList(
                    (0): Linear(in_features=640, out_features=640, bias=True)
                    (1): Dropout(p=0.0, inplace=False)
                  )
                )
                (norm3): LayerNorm((640,), eps=1e-05, elementwise_affine=True)
                (ff): FeedForward(
                  (net): ModuleList(
                    (0): GEGLU(
                      (proj): Linear(in_features=640, out_features=5120, bias=True)
                    )
                    (1): Dropout(p=0.0, inplace=False)
                    (2): Linear(in_features=2560, out_features=640, bias=True)
                  )
                )
              )
            )
            (time_pos_embed): TimestepEmbedding(
              (linear_1): Linear(in_features=640, out_features=2560, bias=True)
              (act): SiLU()
              (linear_2): Linear(in_features=2560, out_features=640, bias=True)
            )
            (time_proj): Timesteps()
            (time_mixer): AlphaBlender()
            (proj_out): Linear(in_features=640, out_features=640, bias=True)
          )
        )
        (resnets): ModuleList(
          (0): SpatioTemporalResBlock(
            (spatial_res_block): ResnetBlock2D(
              (norm1): GroupNorm(32, 1920, eps=1e-06, affine=True)
              (conv1): Conv2d(1920, 640, kernel_size=(3, 3), stride=(1, 1), padding=(1, 1))
              (time_emb_proj): Linear(in_features=1280, out_features=640, bias=True)
              (norm2): GroupNorm(32, 640, eps=1e-06, affine=True)
              (dropout): Dropout(p=0.0, inplace=False)
              (conv2): Conv2d(640, 640, kernel_size=(3, 3), stride=(1, 1), padding=(1, 1))
              (nonlinearity): SiLU()
              (conv_shortcut): Conv2d(1920, 640, kernel_size=(1, 1), stride=(1, 1))
            )
            (temporal_res_block): TemporalResnetBlock(
              (norm1): GroupNorm(32, 640, eps=1e-06, affine=True)
              (conv1): Conv3d(640, 640, kernel_size=(3, 1, 1), stride=(1, 1, 1), padding=(1, 0, 0))
              (time_emb_proj): Linear(in_features=1280, out_features=640, bias=True)
              (norm2): GroupNorm(32, 640, eps=1e-06, affine=True)
              (dropout): Dropout(p=0.0, inplace=False)
              (conv2): Conv3d(640, 640, kernel_size=(3, 1, 1), stride=(1, 1, 1), padding=(1, 0, 0))
              (nonlinearity): SiLU()
            )
            (time_mixer): AlphaBlender()
          )
          (1): SpatioTemporalResBlock(
            (spatial_res_block): ResnetBlock2D(
              (norm1): GroupNorm(32, 1280, eps=1e-06, affine=True)
              (conv1): Conv2d(1280, 640, kernel_size=(3, 3), stride=(1, 1), padding=(1, 1))
              (time_emb_proj): Linear(in_features=1280, out_features=640, bias=True)
              (norm2): GroupNorm(32, 640, eps=1e-06, affine=True)
              (dropout): Dropout(p=0.0, inplace=False)
              (conv2): Conv2d(640, 640, kernel_size=(3, 3), stride=(1, 1), padding=(1, 1))
              (nonlinearity): SiLU()
              (conv_shortcut): Conv2d(1280, 640, kernel_size=(1, 1), stride=(1, 1))
            )
            (temporal_res_block): TemporalResnetBlock(
              (norm1): GroupNorm(32, 640, eps=1e-06, affine=True)
              (conv1): Conv3d(640, 640, kernel_size=(3, 1, 1), stride=(1, 1, 1), padding=(1, 0, 0))
              (time_emb_proj): Linear(in_features=1280, out_features=640, bias=True)
              (norm2): GroupNorm(32, 640, eps=1e-06, affine=True)
              (dropout): Dropout(p=0.0, inplace=False)
              (conv2): Conv3d(640, 640, kernel_size=(3, 1, 1), stride=(1, 1, 1), padding=(1, 0, 0))
              (nonlinearity): SiLU()
            )
            (time_mixer): AlphaBlender()
          )
          (2): SpatioTemporalResBlock(
            (spatial_res_block): ResnetBlock2D(
              (norm1): GroupNorm(32, 960, eps=1e-06, affine=True)
              (conv1): Conv2d(960, 640, kernel_size=(3, 3), stride=(1, 1), padding=(1, 1))
              (time_emb_proj): Linear(in_features=1280, out_features=640, bias=True)
              (norm2): GroupNorm(32, 640, eps=1e-06, affine=True)
              (dropout): Dropout(p=0.0, inplace=False)
              (conv2): Conv2d(640, 640, kernel_size=(3, 3), stride=(1, 1), padding=(1, 1))
              (nonlinearity): SiLU()
              (conv_shortcut): Conv2d(960, 640, kernel_size=(1, 1), stride=(1, 1))
            )
            (temporal_res_block): TemporalResnetBlock(
              (norm1): GroupNorm(32, 640, eps=1e-06, affine=True)
              (conv1): Conv3d(640, 640, kernel_size=(3, 1, 1), stride=(1, 1, 1), padding=(1, 0, 0))
              (time_emb_proj): Linear(in_features=1280, out_features=640, bias=True)
              (norm2): GroupNorm(32, 640, eps=1e-06, affine=True)
              (dropout): Dropout(p=0.0, inplace=False)
              (conv2): Conv3d(640, 640, kernel_size=(3, 1, 1), stride=(1, 1, 1), padding=(1, 0, 0))
              (nonlinearity): SiLU()
            )
            (time_mixer): AlphaBlender()
          )
        )
        (upsamplers): ModuleList(
          (0): Upsample2D(
            (conv): Conv2d(640, 640, kernel_size=(3, 3), stride=(1, 1), padding=(1, 1))
          )
        )
      )
      (3): CrossAttnUpBlockSpatioTemporal(
        (attentions): ModuleList(
          (0-2): 3 x TransformerSpatioTemporalModel(
            (norm): GroupNorm(32, 320, eps=1e-06, affine=True)
            (proj_in): Linear(in_features=320, out_features=320, bias=True)
            (transformer_blocks): ModuleList(
              (0): BasicTransformerBlock(
                (norm1): LayerNorm((320,), eps=1e-05, elementwise_affine=True)
                (attn1): Attention(
                  (to_q): Linear(in_features=320, out_features=320, bias=False)
                  (to_k): Linear(in_features=320, out_features=320, bias=False)
                  (to_v): Linear(in_features=320, out_features=320, bias=False)
                  (to_out): ModuleList(
                    (0): Linear(in_features=320, out_features=320, bias=True)
                    (1): Dropout(p=0.0, inplace=False)
                  )
                  (processor): AnimationAttnProcessor()
                )
                (norm2): LayerNorm((320,), eps=1e-05, elementwise_affine=True)
                (attn2): Attention(
                  (to_q): Linear(in_features=320, out_features=320, bias=False)
                  (to_k): Linear(in_features=1024, out_features=320, bias=False)
                  (to_v): Linear(in_features=1024, out_features=320, bias=False)
                  (to_out): ModuleList(
                    (0): Linear(in_features=320, out_features=320, bias=True)
                    (1): Dropout(p=0.0, inplace=False)
                  )
                  (processor): AnimationIDAttnNormalizedProcessor(
                    (id_to_k): Linear(in_features=1024, out_features=320, bias=False)
                    (id_to_v): Linear(in_features=1024, out_features=320, bias=False)
                  )
                )
                (norm3): LayerNorm((320,), eps=1e-05, elementwise_affine=True)
                (ff): FeedForward(
                  (net): ModuleList(
                    (0): GEGLU(
                      (proj): Linear(in_features=320, out_features=2560, bias=True)
                    )
                    (1): Dropout(p=0.0, inplace=False)
                    (2): Linear(in_features=1280, out_features=320, bias=True)
                  )
                )
              )
            )
            (temporal_transformer_blocks): ModuleList(
              (0): TemporalBasicTransformerBlock(
                (norm_in): LayerNorm((320,), eps=1e-05, elementwise_affine=True)
                (ff_in): FeedForward(
                  (net): ModuleList(
                    (0): GEGLU(
                      (proj): Linear(in_features=320, out_features=2560, bias=True)
                    )
                    (1): Dropout(p=0.0, inplace=False)
                    (2): Linear(in_features=1280, out_features=320, bias=True)
                  )
                )
                (norm1): LayerNorm((320,), eps=1e-05, elementwise_affine=True)
                (attn1): Attention(
                  (to_q): Linear(in_features=320, out_features=320, bias=False)
                  (to_k): Linear(in_features=320, out_features=320, bias=False)
                  (to_v): Linear(in_features=320, out_features=320, bias=False)
                  (to_out): ModuleList(
                    (0): Linear(in_features=320, out_features=320, bias=True)
                    (1): Dropout(p=0.0, inplace=False)
                  )
                )
                (norm2): LayerNorm((320,), eps=1e-05, elementwise_affine=True)
                (attn2): Attention(
                  (to_q): Linear(in_features=320, out_features=320, bias=False)
                  (to_k): Linear(in_features=1024, out_features=320, bias=False)
                  (to_v): Linear(in_features=1024, out_features=320, bias=False)
                  (to_out): ModuleList(
                    (0): Linear(in_features=320, out_features=320, bias=True)
                    (1): Dropout(p=0.0, inplace=False)
                  )
                )
                (norm3): LayerNorm((320,), eps=1e-05, elementwise_affine=True)
                (ff): FeedForward(
                  (net): ModuleList(
                    (0): GEGLU(
                      (proj): Linear(in_features=320, out_features=2560, bias=True)
                    )
                    (1): Dropout(p=0.0, inplace=False)
                    (2): Linear(in_features=1280, out_features=320, bias=True)
                  )
                )
              )
            )
            (time_pos_embed): TimestepEmbedding(
              (linear_1): Linear(in_features=320, out_features=1280, bias=True)
              (act): SiLU()
              (linear_2): Linear(in_features=1280, out_features=320, bias=True)
            )
            (time_proj): Timesteps()
            (time_mixer): AlphaBlender()
            (proj_out): Linear(in_features=320, out_features=320, bias=True)
          )
        )
        (resnets): ModuleList(
          (0): SpatioTemporalResBlock(
            (spatial_res_block): ResnetBlock2D(
              (norm1): GroupNorm(32, 960, eps=1e-06, affine=True)
              (conv1): Conv2d(960, 320, kernel_size=(3, 3), stride=(1, 1), padding=(1, 1))
              (time_emb_proj): Linear(in_features=1280, out_features=320, bias=True)
              (norm2): GroupNorm(32, 320, eps=1e-06, affine=True)
              (dropout): Dropout(p=0.0, inplace=False)
              (conv2): Conv2d(320, 320, kernel_size=(3, 3), stride=(1, 1), padding=(1, 1))
              (nonlinearity): SiLU()
              (conv_shortcut): Conv2d(960, 320, kernel_size=(1, 1), stride=(1, 1))
            )
            (temporal_res_block): TemporalResnetBlock(
              (norm1): GroupNorm(32, 320, eps=1e-06, affine=True)
              (conv1): Conv3d(320, 320, kernel_size=(3, 1, 1), stride=(1, 1, 1), padding=(1, 0, 0))
              (time_emb_proj): Linear(in_features=1280, out_features=320, bias=True)
              (norm2): GroupNorm(32, 320, eps=1e-06, affine=True)
              (dropout): Dropout(p=0.0, inplace=False)
              (conv2): Conv3d(320, 320, kernel_size=(3, 1, 1), stride=(1, 1, 1), padding=(1, 0, 0))
              (nonlinearity): SiLU()
            )
            (time_mixer): AlphaBlender()
          )
          (1-2): 2 x SpatioTemporalResBlock(
            (spatial_res_block): ResnetBlock2D(
              (norm1): GroupNorm(32, 640, eps=1e-06, affine=True)
              (conv1): Conv2d(640, 320, kernel_size=(3, 3), stride=(1, 1), padding=(1, 1))
              (time_emb_proj): Linear(in_features=1280, out_features=320, bias=True)
              (norm2): GroupNorm(32, 320, eps=1e-06, affine=True)
              (dropout): Dropout(p=0.0, inplace=False)
              (conv2): Conv2d(320, 320, kernel_size=(3, 3), stride=(1, 1), padding=(1, 1))
              (nonlinearity): SiLU()
              (conv_shortcut): Conv2d(640, 320, kernel_size=(1, 1), stride=(1, 1))
            )
            (temporal_res_block): TemporalResnetBlock(
              (norm1): GroupNorm(32, 320, eps=1e-06, affine=True)
              (conv1): Conv3d(320, 320, kernel_size=(3, 1, 1), stride=(1, 1, 1), padding=(1, 0, 0))
              (time_emb_proj): Linear(in_features=1280, out_features=320, bias=True)
              (norm2): GroupNorm(32, 320, eps=1e-06, affine=True)
              (dropout): Dropout(p=0.0, inplace=False)
              (conv2): Conv3d(320, 320, kernel_size=(3, 1, 1), stride=(1, 1, 1), padding=(1, 0, 0))
              (nonlinearity): SiLU()
            )
            (time_mixer): AlphaBlender()
          )
        )
      )
    )
    (mid_block): UNetMidBlockSpatioTemporal(
      (attentions): ModuleList(
        (0): TransformerSpatioTemporalModel(
          (norm): GroupNorm(32, 1280, eps=1e-06, affine=True)
          (proj_in): Linear(in_features=1280, out_features=1280, bias=True)
          (transformer_blocks): ModuleList(
            (0): BasicTransformerBlock(
              (norm1): LayerNorm((1280,), eps=1e-05, elementwise_affine=True)
              (attn1): Attention(
                (to_q): Linear(in_features=1280, out_features=1280, bias=False)
                (to_k): Linear(in_features=1280, out_features=1280, bias=False)
                (to_v): Linear(in_features=1280, out_features=1280, bias=False)
                (to_out): ModuleList(
                  (0): Linear(in_features=1280, out_features=1280, bias=True)
                  (1): Dropout(p=0.0, inplace=False)
                )
                (processor): AnimationAttnProcessor()
              )
              (norm2): LayerNorm((1280,), eps=1e-05, elementwise_affine=True)
              (attn2): Attention(
                (to_q): Linear(in_features=1280, out_features=1280, bias=False)
                (to_k): Linear(in_features=1024, out_features=1280, bias=False)
                (to_v): Linear(in_features=1024, out_features=1280, bias=False)
                (to_out): ModuleList(
                  (0): Linear(in_features=1280, out_features=1280, bias=True)
                  (1): Dropout(p=0.0, inplace=False)
                )
                (processor): AnimationIDAttnNormalizedProcessor(
                  (id_to_k): Linear(in_features=1024, out_features=1280, bias=False)
                  (id_to_v): Linear(in_features=1024, out_features=1280, bias=False)
                )
              )
              (norm3): LayerNorm((1280,), eps=1e-05, elementwise_affine=True)
              (ff): FeedForward(
                (net): ModuleList(
                  (0): GEGLU(
                    (proj): Linear(in_features=1280, out_features=10240, bias=True)
                  )
                  (1): Dropout(p=0.0, inplace=False)
                  (2): Linear(in_features=5120, out_features=1280, bias=True)
                )
              )
            )
          )
          (temporal_transformer_blocks): ModuleList(
            (0): TemporalBasicTransformerBlock(
              (norm_in): LayerNorm((1280,), eps=1e-05, elementwise_affine=True)
              (ff_in): FeedForward(
                (net): ModuleList(
                  (0): GEGLU(
                    (proj): Linear(in_features=1280, out_features=10240, bias=True)
                  )
                  (1): Dropout(p=0.0, inplace=False)
                  (2): Linear(in_features=5120, out_features=1280, bias=True)
                )
              )
              (norm1): LayerNorm((1280,), eps=1e-05, elementwise_affine=True)
              (attn1): Attention(
                (to_q): Linear(in_features=1280, out_features=1280, bias=False)
                (to_k): Linear(in_features=1280, out_features=1280, bias=False)
                (to_v): Linear(in_features=1280, out_features=1280, bias=False)
                (to_out): ModuleList(
                  (0): Linear(in_features=1280, out_features=1280, bias=True)
                  (1): Dropout(p=0.0, inplace=False)
                )
              )
              (norm2): LayerNorm((1280,), eps=1e-05, elementwise_affine=True)
              (attn2): Attention(
                (to_q): Linear(in_features=1280, out_features=1280, bias=False)
                (to_k): Linear(in_features=1024, out_features=1280, bias=False)
                (to_v): Linear(in_features=1024, out_features=1280, bias=False)
                (to_out): ModuleList(
                  (0): Linear(in_features=1280, out_features=1280, bias=True)
                  (1): Dropout(p=0.0, inplace=False)
                )
              )
              (norm3): LayerNorm((1280,), eps=1e-05, elementwise_affine=True)
              (ff): FeedForward(
                (net): ModuleList(
                  (0): GEGLU(
                    (proj): Linear(in_features=1280, out_features=10240, bias=True)
                  )
                  (1): Dropout(p=0.0, inplace=False)
                  (2): Linear(in_features=5120, out_features=1280, bias=True)
                )
              )
            )
          )
          (time_pos_embed): TimestepEmbedding(
            (linear_1): Linear(in_features=1280, out_features=5120, bias=True)
            (act): SiLU()
            (linear_2): Linear(in_features=5120, out_features=1280, bias=True)
          )
          (time_proj): Timesteps()
          (time_mixer): AlphaBlender()
          (proj_out): Linear(in_features=1280, out_features=1280, bias=True)
        )
      )
      (resnets): ModuleList(
        (0-1): 2 x SpatioTemporalResBlock(
          (spatial_res_block): ResnetBlock2D(
            (norm1): GroupNorm(32, 1280, eps=1e-05, affine=True)
            (conv1): Conv2d(1280, 1280, kernel_size=(3, 3), stride=(1, 1), padding=(1, 1))
            (time_emb_proj): Linear(in_features=1280, out_features=1280, bias=True)
            (norm2): GroupNorm(32, 1280, eps=1e-05, affine=True)
            (dropout): Dropout(p=0.0, inplace=False)
            (conv2): Conv2d(1280, 1280, kernel_size=(3, 3), stride=(1, 1), padding=(1, 1))
            (nonlinearity): SiLU()
          )
          (temporal_res_block): TemporalResnetBlock(
            (norm1): GroupNorm(32, 1280, eps=1e-05, affine=True)
            (conv1): Conv3d(1280, 1280, kernel_size=(3, 1, 1), stride=(1, 1, 1), padding=(1, 0, 0))
            (time_emb_proj): Linear(in_features=1280, out_features=1280, bias=True)
            (norm2): GroupNorm(32, 1280, eps=1e-05, affine=True)
            (dropout): Dropout(p=0.0, inplace=False)
            (conv2): Conv3d(1280, 1280, kernel_size=(3, 1, 1), stride=(1, 1, 1), padding=(1, 0, 0))
            (nonlinearity): SiLU()
          )
          (time_mixer): AlphaBlender()
        )
      )
    )
    (conv_norm_out): GroupNorm(32, 320, eps=1e-05, affine=True)
    (conv_act): SiLU()
    (conv_out): Conv2d(320, 4, kernel_size=(3, 3), stride=(1, 1), padding=(1, 1))
  )
)
module: UNetSpatioTemporalConditionModel(
  (conv_in): Conv2d(8, 320, kernel_size=(3, 3), stride=(1, 1), padding=(1, 1))
  (time_proj): Timesteps()
  (time_embedding): TimestepEmbedding(
    (linear_1): Linear(in_features=320, out_features=1280, bias=True)
    (act): SiLU()
    (linear_2): Linear(in_features=1280, out_features=1280, bias=True)
  )
  (add_time_proj): Timesteps()
  (add_embedding): TimestepEmbedding(
    (linear_1): Linear(in_features=768, out_features=1280, bias=True)
    (act): SiLU()
    (linear_2): Linear(in_features=1280, out_features=1280, bias=True)
  )
  (down_blocks): ModuleList(
    (0): CrossAttnDownBlockSpatioTemporal(
      (attentions): ModuleList(
        (0-1): 2 x TransformerSpatioTemporalModel(
          (norm): GroupNorm(32, 320, eps=1e-06, affine=True)
          (proj_in): Linear(in_features=320, out_features=320, bias=True)
          (transformer_blocks): ModuleList(
            (0): BasicTransformerBlock(
              (norm1): LayerNorm((320,), eps=1e-05, elementwise_affine=True)
              (attn1): Attention(
                (to_q): Linear(in_features=320, out_features=320, bias=False)
                (to_k): Linear(in_features=320, out_features=320, bias=False)
                (to_v): Linear(in_features=320, out_features=320, bias=False)
                (to_out): ModuleList(
                  (0): Linear(in_features=320, out_features=320, bias=True)
                  (1): Dropout(p=0.0, inplace=False)
                )
                (processor): AnimationAttnProcessor()
              )
              (norm2): LayerNorm((320,), eps=1e-05, elementwise_affine=True)
              (attn2): Attention(
                (to_q): Linear(in_features=320, out_features=320, bias=False)
                (to_k): Linear(in_features=1024, out_features=320, bias=False)
                (to_v): Linear(in_features=1024, out_features=320, bias=False)
                (to_out): ModuleList(
                  (0): Linear(in_features=320, out_features=320, bias=True)
                  (1): Dropout(p=0.0, inplace=False)
                )
                (processor): AnimationIDAttnNormalizedProcessor(
                  (id_to_k): Linear(in_features=1024, out_features=320, bias=False)
                  (id_to_v): Linear(in_features=1024, out_features=320, bias=False)
                )
              )
              (norm3): LayerNorm((320,), eps=1e-05, elementwise_affine=True)
              (ff): FeedForward(
                (net): ModuleList(
                  (0): GEGLU(
                    (proj): Linear(in_features=320, out_features=2560, bias=True)
                  )
                  (1): Dropout(p=0.0, inplace=False)
                  (2): Linear(in_features=1280, out_features=320, bias=True)
                )
              )
            )
          )
          (temporal_transformer_blocks): ModuleList(
            (0): TemporalBasicTransformerBlock(
              (norm_in): LayerNorm((320,), eps=1e-05, elementwise_affine=True)
              (ff_in): FeedForward(
                (net): ModuleList(
                  (0): GEGLU(
                    (proj): Linear(in_features=320, out_features=2560, bias=True)
                  )
                  (1): Dropout(p=0.0, inplace=False)
                  (2): Linear(in_features=1280, out_features=320, bias=True)
                )
              )
              (norm1): LayerNorm((320,), eps=1e-05, elementwise_affine=True)
              (attn1): Attention(
                (to_q): Linear(in_features=320, out_features=320, bias=False)
                (to_k): Linear(in_features=320, out_features=320, bias=False)
                (to_v): Linear(in_features=320, out_features=320, bias=False)
                (to_out): ModuleList(
                  (0): Linear(in_features=320, out_features=320, bias=True)
                  (1): Dropout(p=0.0, inplace=False)
                )
              )
              (norm2): LayerNorm((320,), eps=1e-05, elementwise_affine=True)
              (attn2): Attention(
                (to_q): Linear(in_features=320, out_features=320, bias=False)
                (to_k): Linear(in_features=1024, out_features=320, bias=False)
                (to_v): Linear(in_features=1024, out_features=320, bias=False)
                (to_out): ModuleList(
                  (0): Linear(in_features=320, out_features=320, bias=True)
                  (1): Dropout(p=0.0, inplace=False)
                )
              )
              (norm3): LayerNorm((320,), eps=1e-05, elementwise_affine=True)
              (ff): FeedForward(
                (net): ModuleList(
                  (0): GEGLU(
                    (proj): Linear(in_features=320, out_features=2560, bias=True)
                  )
                  (1): Dropout(p=0.0, inplace=False)
                  (2): Linear(in_features=1280, out_features=320, bias=True)
                )
              )
            )
          )
          (time_pos_embed): TimestepEmbedding(
            (linear_1): Linear(in_features=320, out_features=1280, bias=True)
            (act): SiLU()
            (linear_2): Linear(in_features=1280, out_features=320, bias=True)
          )
          (time_proj): Timesteps()
          (time_mixer): AlphaBlender()
          (proj_out): Linear(in_features=320, out_features=320, bias=True)
        )
      )
      (resnets): ModuleList(
        (0-1): 2 x SpatioTemporalResBlock(
          (spatial_res_block): ResnetBlock2D(
            (norm1): GroupNorm(32, 320, eps=1e-06, affine=True)
            (conv1): Conv2d(320, 320, kernel_size=(3, 3), stride=(1, 1), padding=(1, 1))
            (time_emb_proj): Linear(in_features=1280, out_features=320, bias=True)
            (norm2): GroupNorm(32, 320, eps=1e-06, affine=True)
            (dropout): Dropout(p=0.0, inplace=False)
            (conv2): Conv2d(320, 320, kernel_size=(3, 3), stride=(1, 1), padding=(1, 1))
            (nonlinearity): SiLU()
          )
          (temporal_res_block): TemporalResnetBlock(
            (norm1): GroupNorm(32, 320, eps=1e-06, affine=True)
            (conv1): Conv3d(320, 320, kernel_size=(3, 1, 1), stride=(1, 1, 1), padding=(1, 0, 0))
            (time_emb_proj): Linear(in_features=1280, out_features=320, bias=True)
            (norm2): GroupNorm(32, 320, eps=1e-06, affine=True)
            (dropout): Dropout(p=0.0, inplace=False)
            (conv2): Conv3d(320, 320, kernel_size=(3, 1, 1), stride=(1, 1, 1), padding=(1, 0, 0))
            (nonlinearity): SiLU()
          )
          (time_mixer): AlphaBlender()
        )
      )
      (downsamplers): ModuleList(
        (0): Downsample2D(
          (conv): Conv2d(320, 320, kernel_size=(3, 3), stride=(2, 2), padding=(1, 1))
        )
      )
    )
    (1): CrossAttnDownBlockSpatioTemporal(
      (attentions): ModuleList(
        (0-1): 2 x TransformerSpatioTemporalModel(
          (norm): GroupNorm(32, 640, eps=1e-06, affine=True)
          (proj_in): Linear(in_features=640, out_features=640, bias=True)
          (transformer_blocks): ModuleList(
            (0): BasicTransformerBlock(
              (norm1): LayerNorm((640,), eps=1e-05, elementwise_affine=True)
              (attn1): Attention(
                (to_q): Linear(in_features=640, out_features=640, bias=False)
                (to_k): Linear(in_features=640, out_features=640, bias=False)
                (to_v): Linear(in_features=640, out_features=640, bias=False)
                (to_out): ModuleList(
                  (0): Linear(in_features=640, out_features=640, bias=True)
                  (1): Dropout(p=0.0, inplace=False)
                )
                (processor): AnimationAttnProcessor()
              )
              (norm2): LayerNorm((640,), eps=1e-05, elementwise_affine=True)
              (attn2): Attention(
                (to_q): Linear(in_features=640, out_features=640, bias=False)
                (to_k): Linear(in_features=1024, out_features=640, bias=False)
                (to_v): Linear(in_features=1024, out_features=640, bias=False)
                (to_out): ModuleList(
                  (0): Linear(in_features=640, out_features=640, bias=True)
                  (1): Dropout(p=0.0, inplace=False)
                )
                (processor): AnimationIDAttnNormalizedProcessor(
                  (id_to_k): Linear(in_features=1024, out_features=640, bias=False)
                  (id_to_v): Linear(in_features=1024, out_features=640, bias=False)
                )
              )
              (norm3): LayerNorm((640,), eps=1e-05, elementwise_affine=True)
              (ff): FeedForward(
                (net): ModuleList(
                  (0): GEGLU(
                    (proj): Linear(in_features=640, out_features=5120, bias=True)
                  )
                  (1): Dropout(p=0.0, inplace=False)
                  (2): Linear(in_features=2560, out_features=640, bias=True)
                )
              )
            )
          )
          (temporal_transformer_blocks): ModuleList(
            (0): TemporalBasicTransformerBlock(
              (norm_in): LayerNorm((640,), eps=1e-05, elementwise_affine=True)
              (ff_in): FeedForward(
                (net): ModuleList(
                  (0): GEGLU(
                    (proj): Linear(in_features=640, out_features=5120, bias=True)
                  )
                  (1): Dropout(p=0.0, inplace=False)
                  (2): Linear(in_features=2560, out_features=640, bias=True)
                )
              )
              (norm1): LayerNorm((640,), eps=1e-05, elementwise_affine=True)
              (attn1): Attention(
                (to_q): Linear(in_features=640, out_features=640, bias=False)
                (to_k): Linear(in_features=640, out_features=640, bias=False)
                (to_v): Linear(in_features=640, out_features=640, bias=False)
                (to_out): ModuleList(
                  (0): Linear(in_features=640, out_features=640, bias=True)
                  (1): Dropout(p=0.0, inplace=False)
                )
              )
              (norm2): LayerNorm((640,), eps=1e-05, elementwise_affine=True)
              (attn2): Attention(
                (to_q): Linear(in_features=640, out_features=640, bias=False)
                (to_k): Linear(in_features=1024, out_features=640, bias=False)
                (to_v): Linear(in_features=1024, out_features=640, bias=False)
                (to_out): ModuleList(
                  (0): Linear(in_features=640, out_features=640, bias=True)
                  (1): Dropout(p=0.0, inplace=False)
                )
              )
              (norm3): LayerNorm((640,), eps=1e-05, elementwise_affine=True)
              (ff): FeedForward(
                (net): ModuleList(
                  (0): GEGLU(
                    (proj): Linear(in_features=640, out_features=5120, bias=True)
                  )
                  (1): Dropout(p=0.0, inplace=False)
                  (2): Linear(in_features=2560, out_features=640, bias=True)
                )
              )
            )
          )
          (time_pos_embed): TimestepEmbedding(
            (linear_1): Linear(in_features=640, out_features=2560, bias=True)
            (act): SiLU()
            (linear_2): Linear(in_features=2560, out_features=640, bias=True)
          )
          (time_proj): Timesteps()
          (time_mixer): AlphaBlender()
          (proj_out): Linear(in_features=640, out_features=640, bias=True)
        )
      )
      (resnets): ModuleList(
        (0): SpatioTemporalResBlock(
          (spatial_res_block): ResnetBlock2D(
            (norm1): GroupNorm(32, 320, eps=1e-06, affine=True)
            (conv1): Conv2d(320, 640, kernel_size=(3, 3), stride=(1, 1), padding=(1, 1))
            (time_emb_proj): Linear(in_features=1280, out_features=640, bias=True)
            (norm2): GroupNorm(32, 640, eps=1e-06, affine=True)
            (dropout): Dropout(p=0.0, inplace=False)
            (conv2): Conv2d(640, 640, kernel_size=(3, 3), stride=(1, 1), padding=(1, 1))
            (nonlinearity): SiLU()
            (conv_shortcut): Conv2d(320, 640, kernel_size=(1, 1), stride=(1, 1))
          )
          (temporal_res_block): TemporalResnetBlock(
            (norm1): GroupNorm(32, 640, eps=1e-06, affine=True)
            (conv1): Conv3d(640, 640, kernel_size=(3, 1, 1), stride=(1, 1, 1), padding=(1, 0, 0))
            (time_emb_proj): Linear(in_features=1280, out_features=640, bias=True)
            (norm2): GroupNorm(32, 640, eps=1e-06, affine=True)
            (dropout): Dropout(p=0.0, inplace=False)
            (conv2): Conv3d(640, 640, kernel_size=(3, 1, 1), stride=(1, 1, 1), padding=(1, 0, 0))
            (nonlinearity): SiLU()
          )
          (time_mixer): AlphaBlender()
        )
        (1): SpatioTemporalResBlock(
          (spatial_res_block): ResnetBlock2D(
            (norm1): GroupNorm(32, 640, eps=1e-06, affine=True)
            (conv1): Conv2d(640, 640, kernel_size=(3, 3), stride=(1, 1), padding=(1, 1))
            (time_emb_proj): Linear(in_features=1280, out_features=640, bias=True)
            (norm2): GroupNorm(32, 640, eps=1e-06, affine=True)
            (dropout): Dropout(p=0.0, inplace=False)
            (conv2): Conv2d(640, 640, kernel_size=(3, 3), stride=(1, 1), padding=(1, 1))
            (nonlinearity): SiLU()
          )
          (temporal_res_block): TemporalResnetBlock(
            (norm1): GroupNorm(32, 640, eps=1e-06, affine=True)
            (conv1): Conv3d(640, 640, kernel_size=(3, 1, 1), stride=(1, 1, 1), padding=(1, 0, 0))
            (time_emb_proj): Linear(in_features=1280, out_features=640, bias=True)
            (norm2): GroupNorm(32, 640, eps=1e-06, affine=True)
            (dropout): Dropout(p=0.0, inplace=False)
            (conv2): Conv3d(640, 640, kernel_size=(3, 1, 1), stride=(1, 1, 1), padding=(1, 0, 0))
            (nonlinearity): SiLU()
          )
          (time_mixer): AlphaBlender()
        )
      )
      (downsamplers): ModuleList(
        (0): Downsample2D(
          (conv): Conv2d(640, 640, kernel_size=(3, 3), stride=(2, 2), padding=(1, 1))
        )
      )
    )
    (2): CrossAttnDownBlockSpatioTemporal(
      (attentions): ModuleList(
        (0-1): 2 x TransformerSpatioTemporalModel(
          (norm): GroupNorm(32, 1280, eps=1e-06, affine=True)
          (proj_in): Linear(in_features=1280, out_features=1280, bias=True)
          (transformer_blocks): ModuleList(
            (0): BasicTransformerBlock(
              (norm1): LayerNorm((1280,), eps=1e-05, elementwise_affine=True)
              (attn1): Attention(
                (to_q): Linear(in_features=1280, out_features=1280, bias=False)
                (to_k): Linear(in_features=1280, out_features=1280, bias=False)
                (to_v): Linear(in_features=1280, out_features=1280, bias=False)
                (to_out): ModuleList(
                  (0): Linear(in_features=1280, out_features=1280, bias=True)
                  (1): Dropout(p=0.0, inplace=False)
                )
                (processor): AnimationAttnProcessor()
              )
              (norm2): LayerNorm((1280,), eps=1e-05, elementwise_affine=True)
              (attn2): Attention(
                (to_q): Linear(in_features=1280, out_features=1280, bias=False)
                (to_k): Linear(in_features=1024, out_features=1280, bias=False)
                (to_v): Linear(in_features=1024, out_features=1280, bias=False)
                (to_out): ModuleList(
                  (0): Linear(in_features=1280, out_features=1280, bias=True)
                  (1): Dropout(p=0.0, inplace=False)
                )
                (processor): AnimationIDAttnNormalizedProcessor(
                  (id_to_k): Linear(in_features=1024, out_features=1280, bias=False)
                  (id_to_v): Linear(in_features=1024, out_features=1280, bias=False)
                )
              )
              (norm3): LayerNorm((1280,), eps=1e-05, elementwise_affine=True)
              (ff): FeedForward(
                (net): ModuleList(
                  (0): GEGLU(
                    (proj): Linear(in_features=1280, out_features=10240, bias=True)
                  )
                  (1): Dropout(p=0.0, inplace=False)
                  (2): Linear(in_features=5120, out_features=1280, bias=True)
                )
              )
            )
          )
          (temporal_transformer_blocks): ModuleList(
            (0): TemporalBasicTransformerBlock(
              (norm_in): LayerNorm((1280,), eps=1e-05, elementwise_affine=True)
              (ff_in): FeedForward(
                (net): ModuleList(
                  (0): GEGLU(
                    (proj): Linear(in_features=1280, out_features=10240, bias=True)
                  )
                  (1): Dropout(p=0.0, inplace=False)
                  (2): Linear(in_features=5120, out_features=1280, bias=True)
                )
              )
              (norm1): LayerNorm((1280,), eps=1e-05, elementwise_affine=True)
              (attn1): Attention(
                (to_q): Linear(in_features=1280, out_features=1280, bias=False)
                (to_k): Linear(in_features=1280, out_features=1280, bias=False)
                (to_v): Linear(in_features=1280, out_features=1280, bias=False)
                (to_out): ModuleList(
                  (0): Linear(in_features=1280, out_features=1280, bias=True)
                  (1): Dropout(p=0.0, inplace=False)
                )
              )
              (norm2): LayerNorm((1280,), eps=1e-05, elementwise_affine=True)
              (attn2): Attention(
                (to_q): Linear(in_features=1280, out_features=1280, bias=False)
                (to_k): Linear(in_features=1024, out_features=1280, bias=False)
                (to_v): Linear(in_features=1024, out_features=1280, bias=False)
                (to_out): ModuleList(
                  (0): Linear(in_features=1280, out_features=1280, bias=True)
                  (1): Dropout(p=0.0, inplace=False)
                )
              )
              (norm3): LayerNorm((1280,), eps=1e-05, elementwise_affine=True)
              (ff): FeedForward(
                (net): ModuleList(
                  (0): GEGLU(
                    (proj): Linear(in_features=1280, out_features=10240, bias=True)
                  )
                  (1): Dropout(p=0.0, inplace=False)
                  (2): Linear(in_features=5120, out_features=1280, bias=True)
                )
              )
            )
          )
          (time_pos_embed): TimestepEmbedding(
            (linear_1): Linear(in_features=1280, out_features=5120, bias=True)
            (act): SiLU()
            (linear_2): Linear(in_features=5120, out_features=1280, bias=True)
          )
          (time_proj): Timesteps()
          (time_mixer): AlphaBlender()
          (proj_out): Linear(in_features=1280, out_features=1280, bias=True)
        )
      )
      (resnets): ModuleList(
        (0): SpatioTemporalResBlock(
          (spatial_res_block): ResnetBlock2D(
            (norm1): GroupNorm(32, 640, eps=1e-06, affine=True)
            (conv1): Conv2d(640, 1280, kernel_size=(3, 3), stride=(1, 1), padding=(1, 1))
            (time_emb_proj): Linear(in_features=1280, out_features=1280, bias=True)
            (norm2): GroupNorm(32, 1280, eps=1e-06, affine=True)
            (dropout): Dropout(p=0.0, inplace=False)
            (conv2): Conv2d(1280, 1280, kernel_size=(3, 3), stride=(1, 1), padding=(1, 1))
            (nonlinearity): SiLU()
            (conv_shortcut): Conv2d(640, 1280, kernel_size=(1, 1), stride=(1, 1))
          )
          (temporal_res_block): TemporalResnetBlock(
            (norm1): GroupNorm(32, 1280, eps=1e-06, affine=True)
            (conv1): Conv3d(1280, 1280, kernel_size=(3, 1, 1), stride=(1, 1, 1), padding=(1, 0, 0))
            (time_emb_proj): Linear(in_features=1280, out_features=1280, bias=True)
            (norm2): GroupNorm(32, 1280, eps=1e-06, affine=True)
            (dropout): Dropout(p=0.0, inplace=False)
            (conv2): Conv3d(1280, 1280, kernel_size=(3, 1, 1), stride=(1, 1, 1), padding=(1, 0, 0))
            (nonlinearity): SiLU()
          )
          (time_mixer): AlphaBlender()
        )
        (1): SpatioTemporalResBlock(
          (spatial_res_block): ResnetBlock2D(
            (norm1): GroupNorm(32, 1280, eps=1e-06, affine=True)
            (conv1): Conv2d(1280, 1280, kernel_size=(3, 3), stride=(1, 1), padding=(1, 1))
            (time_emb_proj): Linear(in_features=1280, out_features=1280, bias=True)
            (norm2): GroupNorm(32, 1280, eps=1e-06, affine=True)
            (dropout): Dropout(p=0.0, inplace=False)
            (conv2): Conv2d(1280, 1280, kernel_size=(3, 3), stride=(1, 1), padding=(1, 1))
            (nonlinearity): SiLU()
          )
          (temporal_res_block): TemporalResnetBlock(
            (norm1): GroupNorm(32, 1280, eps=1e-06, affine=True)
            (conv1): Conv3d(1280, 1280, kernel_size=(3, 1, 1), stride=(1, 1, 1), padding=(1, 0, 0))
            (time_emb_proj): Linear(in_features=1280, out_features=1280, bias=True)
            (norm2): GroupNorm(32, 1280, eps=1e-06, affine=True)
            (dropout): Dropout(p=0.0, inplace=False)
            (conv2): Conv3d(1280, 1280, kernel_size=(3, 1, 1), stride=(1, 1, 1), padding=(1, 0, 0))
            (nonlinearity): SiLU()
          )
          (time_mixer): AlphaBlender()
        )
      )
      (downsamplers): ModuleList(
        (0): Downsample2D(
          (conv): Conv2d(1280, 1280, kernel_size=(3, 3), stride=(2, 2), padding=(1, 1))
        )
      )
    )
    (3): DownBlockSpatioTemporal(
      (resnets): ModuleList(
        (0-1): 2 x SpatioTemporalResBlock(
          (spatial_res_block): ResnetBlock2D(
            (norm1): GroupNorm(32, 1280, eps=1e-05, affine=True)
            (conv1): Conv2d(1280, 1280, kernel_size=(3, 3), stride=(1, 1), padding=(1, 1))
            (time_emb_proj): Linear(in_features=1280, out_features=1280, bias=True)
            (norm2): GroupNorm(32, 1280, eps=1e-05, affine=True)
            (dropout): Dropout(p=0.0, inplace=False)
            (conv2): Conv2d(1280, 1280, kernel_size=(3, 3), stride=(1, 1), padding=(1, 1))
            (nonlinearity): SiLU()
          )
          (temporal_res_block): TemporalResnetBlock(
            (norm1): GroupNorm(32, 1280, eps=1e-05, affine=True)
            (conv1): Conv3d(1280, 1280, kernel_size=(3, 1, 1), stride=(1, 1, 1), padding=(1, 0, 0))
            (time_emb_proj): Linear(in_features=1280, out_features=1280, bias=True)
            (norm2): GroupNorm(32, 1280, eps=1e-05, affine=True)
            (dropout): Dropout(p=0.0, inplace=False)
            (conv2): Conv3d(1280, 1280, kernel_size=(3, 1, 1), stride=(1, 1, 1), padding=(1, 0, 0))
            (nonlinearity): SiLU()
          )
          (time_mixer): AlphaBlender()
        )
      )
    )
  )
  (up_blocks): ModuleList(
    (0): UpBlockSpatioTemporal(
      (resnets): ModuleList(
        (0-2): 3 x SpatioTemporalResBlock(
          (spatial_res_block): ResnetBlock2D(
            (norm1): GroupNorm(32, 2560, eps=1e-06, affine=True)
            (conv1): Conv2d(2560, 1280, kernel_size=(3, 3), stride=(1, 1), padding=(1, 1))
            (time_emb_proj): Linear(in_features=1280, out_features=1280, bias=True)
            (norm2): GroupNorm(32, 1280, eps=1e-06, affine=True)
            (dropout): Dropout(p=0.0, inplace=False)
            (conv2): Conv2d(1280, 1280, kernel_size=(3, 3), stride=(1, 1), padding=(1, 1))
            (nonlinearity): SiLU()
            (conv_shortcut): Conv2d(2560, 1280, kernel_size=(1, 1), stride=(1, 1))
          )
          (temporal_res_block): TemporalResnetBlock(
            (norm1): GroupNorm(32, 1280, eps=1e-06, affine=True)
            (conv1): Conv3d(1280, 1280, kernel_size=(3, 1, 1), stride=(1, 1, 1), padding=(1, 0, 0))
            (time_emb_proj): Linear(in_features=1280, out_features=1280, bias=True)
            (norm2): GroupNorm(32, 1280, eps=1e-06, affine=True)
            (dropout): Dropout(p=0.0, inplace=False)
            (conv2): Conv3d(1280, 1280, kernel_size=(3, 1, 1), stride=(1, 1, 1), padding=(1, 0, 0))
            (nonlinearity): SiLU()
          )
          (time_mixer): AlphaBlender()
        )
      )
      (upsamplers): ModuleList(
        (0): Upsample2D(
          (conv): Conv2d(1280, 1280, kernel_size=(3, 3), stride=(1, 1), padding=(1, 1))
        )
      )
    )
    (1): CrossAttnUpBlockSpatioTemporal(
      (attentions): ModuleList(
        (0-2): 3 x TransformerSpatioTemporalModel(
          (norm): GroupNorm(32, 1280, eps=1e-06, affine=True)
          (proj_in): Linear(in_features=1280, out_features=1280, bias=True)
          (transformer_blocks): ModuleList(
            (0): BasicTransformerBlock(
              (norm1): LayerNorm((1280,), eps=1e-05, elementwise_affine=True)
              (attn1): Attention(
                (to_q): Linear(in_features=1280, out_features=1280, bias=False)
                (to_k): Linear(in_features=1280, out_features=1280, bias=False)
                (to_v): Linear(in_features=1280, out_features=1280, bias=False)
                (to_out): ModuleList(
                  (0): Linear(in_features=1280, out_features=1280, bias=True)
                  (1): Dropout(p=0.0, inplace=False)
                )
                (processor): AnimationAttnProcessor()
              )
              (norm2): LayerNorm((1280,), eps=1e-05, elementwise_affine=True)
              (attn2): Attention(
                (to_q): Linear(in_features=1280, out_features=1280, bias=False)
                (to_k): Linear(in_features=1024, out_features=1280, bias=False)
                (to_v): Linear(in_features=1024, out_features=1280, bias=False)
                (to_out): ModuleList(
                  (0): Linear(in_features=1280, out_features=1280, bias=True)
                  (1): Dropout(p=0.0, inplace=False)
                )
                (processor): AnimationIDAttnNormalizedProcessor(
                  (id_to_k): Linear(in_features=1024, out_features=1280, bias=False)
                  (id_to_v): Linear(in_features=1024, out_features=1280, bias=False)
                )
              )
              (norm3): LayerNorm((1280,), eps=1e-05, elementwise_affine=True)
              (ff): FeedForward(
                (net): ModuleList(
                  (0): GEGLU(
                    (proj): Linear(in_features=1280, out_features=10240, bias=True)
                  )
                  (1): Dropout(p=0.0, inplace=False)
                  (2): Linear(in_features=5120, out_features=1280, bias=True)
                )
              )
            )
          )
          (temporal_transformer_blocks): ModuleList(
            (0): TemporalBasicTransformerBlock(
              (norm_in): LayerNorm((1280,), eps=1e-05, elementwise_affine=True)
              (ff_in): FeedForward(
                (net): ModuleList(
                  (0): GEGLU(
                    (proj): Linear(in_features=1280, out_features=10240, bias=True)
                  )
                  (1): Dropout(p=0.0, inplace=False)
                  (2): Linear(in_features=5120, out_features=1280, bias=True)
                )
              )
              (norm1): LayerNorm((1280,), eps=1e-05, elementwise_affine=True)
              (attn1): Attention(
                (to_q): Linear(in_features=1280, out_features=1280, bias=False)
                (to_k): Linear(in_features=1280, out_features=1280, bias=False)
                (to_v): Linear(in_features=1280, out_features=1280, bias=False)
                (to_out): ModuleList(
                  (0): Linear(in_features=1280, out_features=1280, bias=True)
                  (1): Dropout(p=0.0, inplace=False)
                )
              )
              (norm2): LayerNorm((1280,), eps=1e-05, elementwise_affine=True)
              (attn2): Attention(
                (to_q): Linear(in_features=1280, out_features=1280, bias=False)
                (to_k): Linear(in_features=1024, out_features=1280, bias=False)
                (to_v): Linear(in_features=1024, out_features=1280, bias=False)
                (to_out): ModuleList(
                  (0): Linear(in_features=1280, out_features=1280, bias=True)
                  (1): Dropout(p=0.0, inplace=False)
                )
              )
              (norm3): LayerNorm((1280,), eps=1e-05, elementwise_affine=True)
              (ff): FeedForward(
                (net): ModuleList(
                  (0): GEGLU(
                    (proj): Linear(in_features=1280, out_features=10240, bias=True)
                  )
                  (1): Dropout(p=0.0, inplace=False)
                  (2): Linear(in_features=5120, out_features=1280, bias=True)
                )
              )
            )
          )
          (time_pos_embed): TimestepEmbedding(
            (linear_1): Linear(in_features=1280, out_features=5120, bias=True)
            (act): SiLU()
            (linear_2): Linear(in_features=5120, out_features=1280, bias=True)
          )
          (time_proj): Timesteps()
          (time_mixer): AlphaBlender()
          (proj_out): Linear(in_features=1280, out_features=1280, bias=True)
        )
      )
      (resnets): ModuleList(
        (0-1): 2 x SpatioTemporalResBlock(
          (spatial_res_block): ResnetBlock2D(
            (norm1): GroupNorm(32, 2560, eps=1e-06, affine=True)
            (conv1): Conv2d(2560, 1280, kernel_size=(3, 3), stride=(1, 1), padding=(1, 1))
            (time_emb_proj): Linear(in_features=1280, out_features=1280, bias=True)
            (norm2): GroupNorm(32, 1280, eps=1e-06, affine=True)
            (dropout): Dropout(p=0.0, inplace=False)
            (conv2): Conv2d(1280, 1280, kernel_size=(3, 3), stride=(1, 1), padding=(1, 1))
            (nonlinearity): SiLU()
            (conv_shortcut): Conv2d(2560, 1280, kernel_size=(1, 1), stride=(1, 1))
          )
          (temporal_res_block): TemporalResnetBlock(
            (norm1): GroupNorm(32, 1280, eps=1e-06, affine=True)
            (conv1): Conv3d(1280, 1280, kernel_size=(3, 1, 1), stride=(1, 1, 1), padding=(1, 0, 0))
            (time_emb_proj): Linear(in_features=1280, out_features=1280, bias=True)
            (norm2): GroupNorm(32, 1280, eps=1e-06, affine=True)
            (dropout): Dropout(p=0.0, inplace=False)
            (conv2): Conv3d(1280, 1280, kernel_size=(3, 1, 1), stride=(1, 1, 1), padding=(1, 0, 0))
            (nonlinearity): SiLU()
          )
          (time_mixer): AlphaBlender()
        )
        (2): SpatioTemporalResBlock(
          (spatial_res_block): ResnetBlock2D(
            (norm1): GroupNorm(32, 1920, eps=1e-06, affine=True)
            (conv1): Conv2d(1920, 1280, kernel_size=(3, 3), stride=(1, 1), padding=(1, 1))
            (time_emb_proj): Linear(in_features=1280, out_features=1280, bias=True)
            (norm2): GroupNorm(32, 1280, eps=1e-06, affine=True)
            (dropout): Dropout(p=0.0, inplace=False)
            (conv2): Conv2d(1280, 1280, kernel_size=(3, 3), stride=(1, 1), padding=(1, 1))
            (nonlinearity): SiLU()
            (conv_shortcut): Conv2d(1920, 1280, kernel_size=(1, 1), stride=(1, 1))
          )
          (temporal_res_block): TemporalResnetBlock(
            (norm1): GroupNorm(32, 1280, eps=1e-06, affine=True)
            (conv1): Conv3d(1280, 1280, kernel_size=(3, 1, 1), stride=(1, 1, 1), padding=(1, 0, 0))
            (time_emb_proj): Linear(in_features=1280, out_features=1280, bias=True)
            (norm2): GroupNorm(32, 1280, eps=1e-06, affine=True)
            (dropout): Dropout(p=0.0, inplace=False)
            (conv2): Conv3d(1280, 1280, kernel_size=(3, 1, 1), stride=(1, 1, 1), padding=(1, 0, 0))
            (nonlinearity): SiLU()
          )
          (time_mixer): AlphaBlender()
        )
      )
      (upsamplers): ModuleList(
        (0): Upsample2D(
          (conv): Conv2d(1280, 1280, kernel_size=(3, 3), stride=(1, 1), padding=(1, 1))
        )
      )
    )
    (2): CrossAttnUpBlockSpatioTemporal(
      (attentions): ModuleList(
        (0-2): 3 x TransformerSpatioTemporalModel(
          (norm): GroupNorm(32, 640, eps=1e-06, affine=True)
          (proj_in): Linear(in_features=640, out_features=640, bias=True)
          (transformer_blocks): ModuleList(
            (0): BasicTransformerBlock(
              (norm1): LayerNorm((640,), eps=1e-05, elementwise_affine=True)
              (attn1): Attention(
                (to_q): Linear(in_features=640, out_features=640, bias=False)
                (to_k): Linear(in_features=640, out_features=640, bias=False)
                (to_v): Linear(in_features=640, out_features=640, bias=False)
                (to_out): ModuleList(
                  (0): Linear(in_features=640, out_features=640, bias=True)
                  (1): Dropout(p=0.0, inplace=False)
                )
                (processor): AnimationAttnProcessor()
              )
              (norm2): LayerNorm((640,), eps=1e-05, elementwise_affine=True)
              (attn2): Attention(
                (to_q): Linear(in_features=640, out_features=640, bias=False)
                (to_k): Linear(in_features=1024, out_features=640, bias=False)
                (to_v): Linear(in_features=1024, out_features=640, bias=False)
                (to_out): ModuleList(
                  (0): Linear(in_features=640, out_features=640, bias=True)
                  (1): Dropout(p=0.0, inplace=False)
                )
                (processor): AnimationIDAttnNormalizedProcessor(
                  (id_to_k): Linear(in_features=1024, out_features=640, bias=False)
                  (id_to_v): Linear(in_features=1024, out_features=640, bias=False)
                )
              )
              (norm3): LayerNorm((640,), eps=1e-05, elementwise_affine=True)
              (ff): FeedForward(
                (net): ModuleList(
                  (0): GEGLU(
                    (proj): Linear(in_features=640, out_features=5120, bias=True)
                  )
                  (1): Dropout(p=0.0, inplace=False)
                  (2): Linear(in_features=2560, out_features=640, bias=True)
                )
              )
            )
          )
          (temporal_transformer_blocks): ModuleList(
            (0): TemporalBasicTransformerBlock(
              (norm_in): LayerNorm((640,), eps=1e-05, elementwise_affine=True)
              (ff_in): FeedForward(
                (net): ModuleList(
                  (0): GEGLU(
                    (proj): Linear(in_features=640, out_features=5120, bias=True)
                  )
                  (1): Dropout(p=0.0, inplace=False)
                  (2): Linear(in_features=2560, out_features=640, bias=True)
                )
              )
              (norm1): LayerNorm((640,), eps=1e-05, elementwise_affine=True)
              (attn1): Attention(
                (to_q): Linear(in_features=640, out_features=640, bias=False)
                (to_k): Linear(in_features=640, out_features=640, bias=False)
                (to_v): Linear(in_features=640, out_features=640, bias=False)
                (to_out): ModuleList(
                  (0): Linear(in_features=640, out_features=640, bias=True)
                  (1): Dropout(p=0.0, inplace=False)
                )
              )
              (norm2): LayerNorm((640,), eps=1e-05, elementwise_affine=True)
              (attn2): Attention(
                (to_q): Linear(in_features=640, out_features=640, bias=False)
                (to_k): Linear(in_features=1024, out_features=640, bias=False)
                (to_v): Linear(in_features=1024, out_features=640, bias=False)
                (to_out): ModuleList(
                  (0): Linear(in_features=640, out_features=640, bias=True)
                  (1): Dropout(p=0.0, inplace=False)
                )
              )
              (norm3): LayerNorm((640,), eps=1e-05, elementwise_affine=True)
              (ff): FeedForward(
                (net): ModuleList(
                  (0): GEGLU(
                    (proj): Linear(in_features=640, out_features=5120, bias=True)
                  )
                  (1): Dropout(p=0.0, inplace=False)
                  (2): Linear(in_features=2560, out_features=640, bias=True)
                )
              )
            )
          )
          (time_pos_embed): TimestepEmbedding(
            (linear_1): Linear(in_features=640, out_features=2560, bias=True)
            (act): SiLU()
            (linear_2): Linear(in_features=2560, out_features=640, bias=True)
          )
          (time_proj): Timesteps()
          (time_mixer): AlphaBlender()
          (proj_out): Linear(in_features=640, out_features=640, bias=True)
        )
      )
      (resnets): ModuleList(
        (0): SpatioTemporalResBlock(
          (spatial_res_block): ResnetBlock2D(
            (norm1): GroupNorm(32, 1920, eps=1e-06, affine=True)
            (conv1): Conv2d(1920, 640, kernel_size=(3, 3), stride=(1, 1), padding=(1, 1))
            (time_emb_proj): Linear(in_features=1280, out_features=640, bias=True)
            (norm2): GroupNorm(32, 640, eps=1e-06, affine=True)
            (dropout): Dropout(p=0.0, inplace=False)
            (conv2): Conv2d(640, 640, kernel_size=(3, 3), stride=(1, 1), padding=(1, 1))
            (nonlinearity): SiLU()
            (conv_shortcut): Conv2d(1920, 640, kernel_size=(1, 1), stride=(1, 1))
          )
          (temporal_res_block): TemporalResnetBlock(
            (norm1): GroupNorm(32, 640, eps=1e-06, affine=True)
            (conv1): Conv3d(640, 640, kernel_size=(3, 1, 1), stride=(1, 1, 1), padding=(1, 0, 0))
            (time_emb_proj): Linear(in_features=1280, out_features=640, bias=True)
            (norm2): GroupNorm(32, 640, eps=1e-06, affine=True)
            (dropout): Dropout(p=0.0, inplace=False)
            (conv2): Conv3d(640, 640, kernel_size=(3, 1, 1), stride=(1, 1, 1), padding=(1, 0, 0))
            (nonlinearity): SiLU()
          )
          (time_mixer): AlphaBlender()
        )
        (1): SpatioTemporalResBlock(
          (spatial_res_block): ResnetBlock2D(
            (norm1): GroupNorm(32, 1280, eps=1e-06, affine=True)
            (conv1): Conv2d(1280, 640, kernel_size=(3, 3), stride=(1, 1), padding=(1, 1))
            (time_emb_proj): Linear(in_features=1280, out_features=640, bias=True)
            (norm2): GroupNorm(32, 640, eps=1e-06, affine=True)
            (dropout): Dropout(p=0.0, inplace=False)
            (conv2): Conv2d(640, 640, kernel_size=(3, 3), stride=(1, 1), padding=(1, 1))
            (nonlinearity): SiLU()
            (conv_shortcut): Conv2d(1280, 640, kernel_size=(1, 1), stride=(1, 1))
          )
          (temporal_res_block): TemporalResnetBlock(
            (norm1): GroupNorm(32, 640, eps=1e-06, affine=True)
            (conv1): Conv3d(640, 640, kernel_size=(3, 1, 1), stride=(1, 1, 1), padding=(1, 0, 0))
            (time_emb_proj): Linear(in_features=1280, out_features=640, bias=True)
            (norm2): GroupNorm(32, 640, eps=1e-06, affine=True)
            (dropout): Dropout(p=0.0, inplace=False)
            (conv2): Conv3d(640, 640, kernel_size=(3, 1, 1), stride=(1, 1, 1), padding=(1, 0, 0))
            (nonlinearity): SiLU()
          )
          (time_mixer): AlphaBlender()
        )
        (2): SpatioTemporalResBlock(
          (spatial_res_block): ResnetBlock2D(
            (norm1): GroupNorm(32, 960, eps=1e-06, affine=True)
            (conv1): Conv2d(960, 640, kernel_size=(3, 3), stride=(1, 1), padding=(1, 1))
            (time_emb_proj): Linear(in_features=1280, out_features=640, bias=True)
            (norm2): GroupNorm(32, 640, eps=1e-06, affine=True)
            (dropout): Dropout(p=0.0, inplace=False)
            (conv2): Conv2d(640, 640, kernel_size=(3, 3), stride=(1, 1), padding=(1, 1))
            (nonlinearity): SiLU()
            (conv_shortcut): Conv2d(960, 640, kernel_size=(1, 1), stride=(1, 1))
          )
          (temporal_res_block): TemporalResnetBlock(
            (norm1): GroupNorm(32, 640, eps=1e-06, affine=True)
            (conv1): Conv3d(640, 640, kernel_size=(3, 1, 1), stride=(1, 1, 1), padding=(1, 0, 0))
            (time_emb_proj): Linear(in_features=1280, out_features=640, bias=True)
            (norm2): GroupNorm(32, 640, eps=1e-06, affine=True)
            (dropout): Dropout(p=0.0, inplace=False)
            (conv2): Conv3d(640, 640, kernel_size=(3, 1, 1), stride=(1, 1, 1), padding=(1, 0, 0))
            (nonlinearity): SiLU()
          )
          (time_mixer): AlphaBlender()
        )
      )
      (upsamplers): ModuleList(
        (0): Upsample2D(
          (conv): Conv2d(640, 640, kernel_size=(3, 3), stride=(1, 1), padding=(1, 1))
        )
      )
    )
    (3): CrossAttnUpBlockSpatioTemporal(
      (attentions): ModuleList(
        (0-2): 3 x TransformerSpatioTemporalModel(
          (norm): GroupNorm(32, 320, eps=1e-06, affine=True)
          (proj_in): Linear(in_features=320, out_features=320, bias=True)
          (transformer_blocks): ModuleList(
            (0): BasicTransformerBlock(
              (norm1): LayerNorm((320,), eps=1e-05, elementwise_affine=True)
              (attn1): Attention(
                (to_q): Linear(in_features=320, out_features=320, bias=False)
                (to_k): Linear(in_features=320, out_features=320, bias=False)
                (to_v): Linear(in_features=320, out_features=320, bias=False)
                (to_out): ModuleList(
                  (0): Linear(in_features=320, out_features=320, bias=True)
                  (1): Dropout(p=0.0, inplace=False)
                )
                (processor): AnimationAttnProcessor()
              )
              (norm2): LayerNorm((320,), eps=1e-05, elementwise_affine=True)
              (attn2): Attention(
                (to_q): Linear(in_features=320, out_features=320, bias=False)
                (to_k): Linear(in_features=1024, out_features=320, bias=False)
                (to_v): Linear(in_features=1024, out_features=320, bias=False)
                (to_out): ModuleList(
                  (0): Linear(in_features=320, out_features=320, bias=True)
                  (1): Dropout(p=0.0, inplace=False)
                )
                (processor): AnimationIDAttnNormalizedProcessor(
                  (id_to_k): Linear(in_features=1024, out_features=320, bias=False)
                  (id_to_v): Linear(in_features=1024, out_features=320, bias=False)
                )
              )
              (norm3): LayerNorm((320,), eps=1e-05, elementwise_affine=True)
              (ff): FeedForward(
                (net): ModuleList(
                  (0): GEGLU(
                    (proj): Linear(in_features=320, out_features=2560, bias=True)
                  )
                  (1): Dropout(p=0.0, inplace=False)
                  (2): Linear(in_features=1280, out_features=320, bias=True)
                )
              )
            )
          )
          (temporal_transformer_blocks): ModuleList(
            (0): TemporalBasicTransformerBlock(
              (norm_in): LayerNorm((320,), eps=1e-05, elementwise_affine=True)
              (ff_in): FeedForward(
                (net): ModuleList(
                  (0): GEGLU(
                    (proj): Linear(in_features=320, out_features=2560, bias=True)
                  )
                  (1): Dropout(p=0.0, inplace=False)
                  (2): Linear(in_features=1280, out_features=320, bias=True)
                )
              )
              (norm1): LayerNorm((320,), eps=1e-05, elementwise_affine=True)
              (attn1): Attention(
                (to_q): Linear(in_features=320, out_features=320, bias=False)
                (to_k): Linear(in_features=320, out_features=320, bias=False)
                (to_v): Linear(in_features=320, out_features=320, bias=False)
                (to_out): ModuleList(
                  (0): Linear(in_features=320, out_features=320, bias=True)
                  (1): Dropout(p=0.0, inplace=False)
                )
              )
              (norm2): LayerNorm((320,), eps=1e-05, elementwise_affine=True)
              (attn2): Attention(
                (to_q): Linear(in_features=320, out_features=320, bias=False)
                (to_k): Linear(in_features=1024, out_features=320, bias=False)
                (to_v): Linear(in_features=1024, out_features=320, bias=False)
                (to_out): ModuleList(
                  (0): Linear(in_features=320, out_features=320, bias=True)
                  (1): Dropout(p=0.0, inplace=False)
                )
              )
              (norm3): LayerNorm((320,), eps=1e-05, elementwise_affine=True)
              (ff): FeedForward(
                (net): ModuleList(
                  (0): GEGLU(
                    (proj): Linear(in_features=320, out_features=2560, bias=True)
                  )
                  (1): Dropout(p=0.0, inplace=False)
                  (2): Linear(in_features=1280, out_features=320, bias=True)
                )
              )
            )
          )
          (time_pos_embed): TimestepEmbedding(
            (linear_1): Linear(in_features=320, out_features=1280, bias=True)
            (act): SiLU()
            (linear_2): Linear(in_features=1280, out_features=320, bias=True)
          )
          (time_proj): Timesteps()
          (time_mixer): AlphaBlender()
          (proj_out): Linear(in_features=320, out_features=320, bias=True)
        )
      )
      (resnets): ModuleList(
        (0): SpatioTemporalResBlock(
          (spatial_res_block): ResnetBlock2D(
            (norm1): GroupNorm(32, 960, eps=1e-06, affine=True)
            (conv1): Conv2d(960, 320, kernel_size=(3, 3), stride=(1, 1), padding=(1, 1))
            (time_emb_proj): Linear(in_features=1280, out_features=320, bias=True)
            (norm2): GroupNorm(32, 320, eps=1e-06, affine=True)
            (dropout): Dropout(p=0.0, inplace=False)
            (conv2): Conv2d(320, 320, kernel_size=(3, 3), stride=(1, 1), padding=(1, 1))
            (nonlinearity): SiLU()
            (conv_shortcut): Conv2d(960, 320, kernel_size=(1, 1), stride=(1, 1))
          )
          (temporal_res_block): TemporalResnetBlock(
            (norm1): GroupNorm(32, 320, eps=1e-06, affine=True)
            (conv1): Conv3d(320, 320, kernel_size=(3, 1, 1), stride=(1, 1, 1), padding=(1, 0, 0))
            (time_emb_proj): Linear(in_features=1280, out_features=320, bias=True)
            (norm2): GroupNorm(32, 320, eps=1e-06, affine=True)
            (dropout): Dropout(p=0.0, inplace=False)
            (conv2): Conv3d(320, 320, kernel_size=(3, 1, 1), stride=(1, 1, 1), padding=(1, 0, 0))
            (nonlinearity): SiLU()
          )
          (time_mixer): AlphaBlender()
        )
        (1-2): 2 x SpatioTemporalResBlock(
          (spatial_res_block): ResnetBlock2D(
            (norm1): GroupNorm(32, 640, eps=1e-06, affine=True)
            (conv1): Conv2d(640, 320, kernel_size=(3, 3), stride=(1, 1), padding=(1, 1))
            (time_emb_proj): Linear(in_features=1280, out_features=320, bias=True)
            (norm2): GroupNorm(32, 320, eps=1e-06, affine=True)
            (dropout): Dropout(p=0.0, inplace=False)
            (conv2): Conv2d(320, 320, kernel_size=(3, 3), stride=(1, 1), padding=(1, 1))
            (nonlinearity): SiLU()
            (conv_shortcut): Conv2d(640, 320, kernel_size=(1, 1), stride=(1, 1))
          )
          (temporal_res_block): TemporalResnetBlock(
            (norm1): GroupNorm(32, 320, eps=1e-06, affine=True)
            (conv1): Conv3d(320, 320, kernel_size=(3, 1, 1), stride=(1, 1, 1), padding=(1, 0, 0))
            (time_emb_proj): Linear(in_features=1280, out_features=320, bias=True)
            (norm2): GroupNorm(32, 320, eps=1e-06, affine=True)
            (dropout): Dropout(p=0.0, inplace=False)
            (conv2): Conv3d(320, 320, kernel_size=(3, 1, 1), stride=(1, 1, 1), padding=(1, 0, 0))
            (nonlinearity): SiLU()
          )
          (time_mixer): AlphaBlender()
        )
      )
    )
  )
  (mid_block): UNetMidBlockSpatioTemporal(
    (attentions): ModuleList(
      (0): TransformerSpatioTemporalModel(
        (norm): GroupNorm(32, 1280, eps=1e-06, affine=True)
        (proj_in): Linear(in_features=1280, out_features=1280, bias=True)
        (transformer_blocks): ModuleList(
          (0): BasicTransformerBlock(
            (norm1): LayerNorm((1280,), eps=1e-05, elementwise_affine=True)
            (attn1): Attention(
              (to_q): Linear(in_features=1280, out_features=1280, bias=False)
              (to_k): Linear(in_features=1280, out_features=1280, bias=False)
              (to_v): Linear(in_features=1280, out_features=1280, bias=False)
              (to_out): ModuleList(
                (0): Linear(in_features=1280, out_features=1280, bias=True)
                (1): Dropout(p=0.0, inplace=False)
              )
              (processor): AnimationAttnProcessor()
            )
            (norm2): LayerNorm((1280,), eps=1e-05, elementwise_affine=True)
            (attn2): Attention(
              (to_q): Linear(in_features=1280, out_features=1280, bias=False)
              (to_k): Linear(in_features=1024, out_features=1280, bias=False)
              (to_v): Linear(in_features=1024, out_features=1280, bias=False)
              (to_out): ModuleList(
                (0): Linear(in_features=1280, out_features=1280, bias=True)
                (1): Dropout(p=0.0, inplace=False)
              )
              (processor): AnimationIDAttnNormalizedProcessor(
                (id_to_k): Linear(in_features=1024, out_features=1280, bias=False)
                (id_to_v): Linear(in_features=1024, out_features=1280, bias=False)
              )
            )
            (norm3): LayerNorm((1280,), eps=1e-05, elementwise_affine=True)
            (ff): FeedForward(
              (net): ModuleList(
                (0): GEGLU(
                  (proj): Linear(in_features=1280, out_features=10240, bias=True)
                )
                (1): Dropout(p=0.0, inplace=False)
                (2): Linear(in_features=5120, out_features=1280, bias=True)
              )
            )
          )
        )
        (temporal_transformer_blocks): ModuleList(
          (0): TemporalBasicTransformerBlock(
            (norm_in): LayerNorm((1280,), eps=1e-05, elementwise_affine=True)
            (ff_in): FeedForward(
              (net): ModuleList(
                (0): GEGLU(
                  (proj): Linear(in_features=1280, out_features=10240, bias=True)
                )
                (1): Dropout(p=0.0, inplace=False)
                (2): Linear(in_features=5120, out_features=1280, bias=True)
              )
            )
            (norm1): LayerNorm((1280,), eps=1e-05, elementwise_affine=True)
            (attn1): Attention(
              (to_q): Linear(in_features=1280, out_features=1280, bias=False)
              (to_k): Linear(in_features=1280, out_features=1280, bias=False)
              (to_v): Linear(in_features=1280, out_features=1280, bias=False)
              (to_out): ModuleList(
                (0): Linear(in_features=1280, out_features=1280, bias=True)
                (1): Dropout(p=0.0, inplace=False)
              )
            )
            (norm2): LayerNorm((1280,), eps=1e-05, elementwise_affine=True)
            (attn2): Attention(
              (to_q): Linear(in_features=1280, out_features=1280, bias=False)
              (to_k): Linear(in_features=1024, out_features=1280, bias=False)
              (to_v): Linear(in_features=1024, out_features=1280, bias=False)
              (to_out): ModuleList(
                (0): Linear(in_features=1280, out_features=1280, bias=True)
                (1): Dropout(p=0.0, inplace=False)
              )
            )
            (norm3): LayerNorm((1280,), eps=1e-05, elementwise_affine=True)
            (ff): FeedForward(
              (net): ModuleList(
                (0): GEGLU(
                  (proj): Linear(in_features=1280, out_features=10240, bias=True)
                )
                (1): Dropout(p=0.0, inplace=False)
                (2): Linear(in_features=5120, out_features=1280, bias=True)
              )
            )
          )
        )
        (time_pos_embed): TimestepEmbedding(
          (linear_1): Linear(in_features=1280, out_features=5120, bias=True)
          (act): SiLU()
          (linear_2): Linear(in_features=5120, out_features=1280, bias=True)
        )
        (time_proj): Timesteps()
        (time_mixer): AlphaBlender()
        (proj_out): Linear(in_features=1280, out_features=1280, bias=True)
      )
    )
    (resnets): ModuleList(
      (0-1): 2 x SpatioTemporalResBlock(
        (spatial_res_block): ResnetBlock2D(
          (norm1): GroupNorm(32, 1280, eps=1e-05, affine=True)
          (conv1): Conv2d(1280, 1280, kernel_size=(3, 3), stride=(1, 1), padding=(1, 1))
          (time_emb_proj): Linear(in_features=1280, out_features=1280, bias=True)
          (norm2): GroupNorm(32, 1280, eps=1e-05, affine=True)
          (dropout): Dropout(p=0.0, inplace=False)
          (conv2): Conv2d(1280, 1280, kernel_size=(3, 3), stride=(1, 1), padding=(1, 1))
          (nonlinearity): SiLU()
        )
        (temporal_res_block): TemporalResnetBlock(
          (norm1): GroupNorm(32, 1280, eps=1e-05, affine=True)
          (conv1): Conv3d(1280, 1280, kernel_size=(3, 1, 1), stride=(1, 1, 1), padding=(1, 0, 0))
          (time_emb_proj): Linear(in_features=1280, out_features=1280, bias=True)
          (norm2): GroupNorm(32, 1280, eps=1e-05, affine=True)
          (dropout): Dropout(p=0.0, inplace=False)
          (conv2): Conv3d(1280, 1280, kernel_size=(3, 1, 1), stride=(1, 1, 1), padding=(1, 0, 0))
          (nonlinearity): SiLU()
        )
        (time_mixer): AlphaBlender()
      )
    )
  )
  (conv_norm_out): GroupNorm(32, 320, eps=1e-05, affine=True)
  (conv_act): SiLU()
  (conv_out): Conv2d(320, 4, kernel_size=(3, 3), stride=(1, 1), padding=(1, 1))
)
module.conv_in: Conv2d(8, 320, kernel_size=(3, 3), stride=(1, 1), padding=(1, 1))
module.time_proj: Timesteps()
module.time_embedding: TimestepEmbedding(
  (linear_1): Linear(in_features=320, out_features=1280, bias=True)
  (act): SiLU()
  (linear_2): Linear(in_features=1280, out_features=1280, bias=True)
)
module.time_embedding.linear_1: Linear(in_features=320, out_features=1280, bias=True)
module.time_embedding.act: SiLU()
module.time_embedding.linear_2: Linear(in_features=1280, out_features=1280, bias=True)
module.add_time_proj: Timesteps()
module.add_embedding: TimestepEmbedding(
  (linear_1): Linear(in_features=768, out_features=1280, bias=True)
  (act): SiLU()
  (linear_2): Linear(in_features=1280, out_features=1280, bias=True)
)
module.add_embedding.linear_1: Linear(in_features=768, out_features=1280, bias=True)
module.add_embedding.linear_2: Linear(in_features=1280, out_features=1280, bias=True)
module.down_blocks: ModuleList(
  (0): CrossAttnDownBlockSpatioTemporal(
    (attentions): ModuleList(
      (0-1): 2 x TransformerSpatioTemporalModel(
        (norm): GroupNorm(32, 320, eps=1e-06, affine=True)
        (proj_in): Linear(in_features=320, out_features=320, bias=True)
        (transformer_blocks): ModuleList(
          (0): BasicTransformerBlock(
            (norm1): LayerNorm((320,), eps=1e-05, elementwise_affine=True)
            (attn1): Attention(
              (to_q): Linear(in_features=320, out_features=320, bias=False)
              (to_k): Linear(in_features=320, out_features=320, bias=False)
              (to_v): Linear(in_features=320, out_features=320, bias=False)
              (to_out): ModuleList(
                (0): Linear(in_features=320, out_features=320, bias=True)
                (1): Dropout(p=0.0, inplace=False)
              )
              (processor): AnimationAttnProcessor()
            )
            (norm2): LayerNorm((320,), eps=1e-05, elementwise_affine=True)
            (attn2): Attention(
              (to_q): Linear(in_features=320, out_features=320, bias=False)
              (to_k): Linear(in_features=1024, out_features=320, bias=False)
              (to_v): Linear(in_features=1024, out_features=320, bias=False)
              (to_out): ModuleList(
                (0): Linear(in_features=320, out_features=320, bias=True)
                (1): Dropout(p=0.0, inplace=False)
              )
              (processor): AnimationIDAttnNormalizedProcessor(
                (id_to_k): Linear(in_features=1024, out_features=320, bias=False)
                (id_to_v): Linear(in_features=1024, out_features=320, bias=False)
              )
            )
            (norm3): LayerNorm((320,), eps=1e-05, elementwise_affine=True)
            (ff): FeedForward(
              (net): ModuleList(
                (0): GEGLU(
                  (proj): Linear(in_features=320, out_features=2560, bias=True)
                )
                (1): Dropout(p=0.0, inplace=False)
                (2): Linear(in_features=1280, out_features=320, bias=True)
              )
            )
          )
        )
        (temporal_transformer_blocks): ModuleList(
          (0): TemporalBasicTransformerBlock(
            (norm_in): LayerNorm((320,), eps=1e-05, elementwise_affine=True)
            (ff_in): FeedForward(
              (net): ModuleList(
                (0): GEGLU(
                  (proj): Linear(in_features=320, out_features=2560, bias=True)
                )
                (1): Dropout(p=0.0, inplace=False)
                (2): Linear(in_features=1280, out_features=320, bias=True)
              )
            )
            (norm1): LayerNorm((320,), eps=1e-05, elementwise_affine=True)
            (attn1): Attention(
              (to_q): Linear(in_features=320, out_features=320, bias=False)
              (to_k): Linear(in_features=320, out_features=320, bias=False)
              (to_v): Linear(in_features=320, out_features=320, bias=False)
              (to_out): ModuleList(
                (0): Linear(in_features=320, out_features=320, bias=True)
                (1): Dropout(p=0.0, inplace=False)
              )
            )
            (norm2): LayerNorm((320,), eps=1e-05, elementwise_affine=True)
            (attn2): Attention(
              (to_q): Linear(in_features=320, out_features=320, bias=False)
              (to_k): Linear(in_features=1024, out_features=320, bias=False)
              (to_v): Linear(in_features=1024, out_features=320, bias=False)
              (to_out): ModuleList(
                (0): Linear(in_features=320, out_features=320, bias=True)
                (1): Dropout(p=0.0, inplace=False)
              )
            )
            (norm3): LayerNorm((320,), eps=1e-05, elementwise_affine=True)
            (ff): FeedForward(
              (net): ModuleList(
                (0): GEGLU(
                  (proj): Linear(in_features=320, out_features=2560, bias=True)
                )
                (1): Dropout(p=0.0, inplace=False)
                (2): Linear(in_features=1280, out_features=320, bias=True)
              )
            )
          )
        )
        (time_pos_embed): TimestepEmbedding(
          (linear_1): Linear(in_features=320, out_features=1280, bias=True)
          (act): SiLU()
          (linear_2): Linear(in_features=1280, out_features=320, bias=True)
        )
        (time_proj): Timesteps()
        (time_mixer): AlphaBlender()
        (proj_out): Linear(in_features=320, out_features=320, bias=True)
      )
    )
    (resnets): ModuleList(
      (0-1): 2 x SpatioTemporalResBlock(
        (spatial_res_block): ResnetBlock2D(
          (norm1): GroupNorm(32, 320, eps=1e-06, affine=True)
          (conv1): Conv2d(320, 320, kernel_size=(3, 3), stride=(1, 1), padding=(1, 1))
          (time_emb_proj): Linear(in_features=1280, out_features=320, bias=True)
          (norm2): GroupNorm(32, 320, eps=1e-06, affine=True)
          (dropout): Dropout(p=0.0, inplace=False)
          (conv2): Conv2d(320, 320, kernel_size=(3, 3), stride=(1, 1), padding=(1, 1))
          (nonlinearity): SiLU()
        )
        (temporal_res_block): TemporalResnetBlock(
          (norm1): GroupNorm(32, 320, eps=1e-06, affine=True)
          (conv1): Conv3d(320, 320, kernel_size=(3, 1, 1), stride=(1, 1, 1), padding=(1, 0, 0))
          (time_emb_proj): Linear(in_features=1280, out_features=320, bias=True)
          (norm2): GroupNorm(32, 320, eps=1e-06, affine=True)
          (dropout): Dropout(p=0.0, inplace=False)
          (conv2): Conv3d(320, 320, kernel_size=(3, 1, 1), stride=(1, 1, 1), padding=(1, 0, 0))
          (nonlinearity): SiLU()
        )
        (time_mixer): AlphaBlender()
      )
    )
    (downsamplers): ModuleList(
      (0): Downsample2D(
        (conv): Conv2d(320, 320, kernel_size=(3, 3), stride=(2, 2), padding=(1, 1))
      )
    )
  )
  (1): CrossAttnDownBlockSpatioTemporal(
    (attentions): ModuleList(
      (0-1): 2 x TransformerSpatioTemporalModel(
        (norm): GroupNorm(32, 640, eps=1e-06, affine=True)
        (proj_in): Linear(in_features=640, out_features=640, bias=True)
        (transformer_blocks): ModuleList(
          (0): BasicTransformerBlock(
            (norm1): LayerNorm((640,), eps=1e-05, elementwise_affine=True)
            (attn1): Attention(
              (to_q): Linear(in_features=640, out_features=640, bias=False)
              (to_k): Linear(in_features=640, out_features=640, bias=False)
              (to_v): Linear(in_features=640, out_features=640, bias=False)
              (to_out): ModuleList(
                (0): Linear(in_features=640, out_features=640, bias=True)
                (1): Dropout(p=0.0, inplace=False)
              )
              (processor): AnimationAttnProcessor()
            )
            (norm2): LayerNorm((640,), eps=1e-05, elementwise_affine=True)
            (attn2): Attention(
              (to_q): Linear(in_features=640, out_features=640, bias=False)
              (to_k): Linear(in_features=1024, out_features=640, bias=False)
              (to_v): Linear(in_features=1024, out_features=640, bias=False)
              (to_out): ModuleList(
                (0): Linear(in_features=640, out_features=640, bias=True)
                (1): Dropout(p=0.0, inplace=False)
              )
              (processor): AnimationIDAttnNormalizedProcessor(
                (id_to_k): Linear(in_features=1024, out_features=640, bias=False)
                (id_to_v): Linear(in_features=1024, out_features=640, bias=False)
              )
            )
            (norm3): LayerNorm((640,), eps=1e-05, elementwise_affine=True)
            (ff): FeedForward(
              (net): ModuleList(
                (0): GEGLU(
                  (proj): Linear(in_features=640, out_features=5120, bias=True)
                )
                (1): Dropout(p=0.0, inplace=False)
                (2): Linear(in_features=2560, out_features=640, bias=True)
              )
            )
          )
        )
        (temporal_transformer_blocks): ModuleList(
          (0): TemporalBasicTransformerBlock(
            (norm_in): LayerNorm((640,), eps=1e-05, elementwise_affine=True)
            (ff_in): FeedForward(
              (net): ModuleList(
                (0): GEGLU(
                  (proj): Linear(in_features=640, out_features=5120, bias=True)
                )
                (1): Dropout(p=0.0, inplace=False)
                (2): Linear(in_features=2560, out_features=640, bias=True)
              )
            )
            (norm1): LayerNorm((640,), eps=1e-05, elementwise_affine=True)
            (attn1): Attention(
              (to_q): Linear(in_features=640, out_features=640, bias=False)
              (to_k): Linear(in_features=640, out_features=640, bias=False)
              (to_v): Linear(in_features=640, out_features=640, bias=False)
              (to_out): ModuleList(
                (0): Linear(in_features=640, out_features=640, bias=True)
                (1): Dropout(p=0.0, inplace=False)
              )
            )
            (norm2): LayerNorm((640,), eps=1e-05, elementwise_affine=True)
            (attn2): Attention(
              (to_q): Linear(in_features=640, out_features=640, bias=False)
              (to_k): Linear(in_features=1024, out_features=640, bias=False)
              (to_v): Linear(in_features=1024, out_features=640, bias=False)
              (to_out): ModuleList(
                (0): Linear(in_features=640, out_features=640, bias=True)
                (1): Dropout(p=0.0, inplace=False)
              )
            )
            (norm3): LayerNorm((640,), eps=1e-05, elementwise_affine=True)
            (ff): FeedForward(
              (net): ModuleList(
                (0): GEGLU(
                  (proj): Linear(in_features=640, out_features=5120, bias=True)
                )
                (1): Dropout(p=0.0, inplace=False)
                (2): Linear(in_features=2560, out_features=640, bias=True)
              )
            )
          )
        )
        (time_pos_embed): TimestepEmbedding(
          (linear_1): Linear(in_features=640, out_features=2560, bias=True)
          (act): SiLU()
          (linear_2): Linear(in_features=2560, out_features=640, bias=True)
        )
        (time_proj): Timesteps()
        (time_mixer): AlphaBlender()
        (proj_out): Linear(in_features=640, out_features=640, bias=True)
      )
    )
    (resnets): ModuleList(
      (0): SpatioTemporalResBlock(
        (spatial_res_block): ResnetBlock2D(
          (norm1): GroupNorm(32, 320, eps=1e-06, affine=True)
          (conv1): Conv2d(320, 640, kernel_size=(3, 3), stride=(1, 1), padding=(1, 1))
          (time_emb_proj): Linear(in_features=1280, out_features=640, bias=True)
          (norm2): GroupNorm(32, 640, eps=1e-06, affine=True)
          (dropout): Dropout(p=0.0, inplace=False)
          (conv2): Conv2d(640, 640, kernel_size=(3, 3), stride=(1, 1), padding=(1, 1))
          (nonlinearity): SiLU()
          (conv_shortcut): Conv2d(320, 640, kernel_size=(1, 1), stride=(1, 1))
        )
        (temporal_res_block): TemporalResnetBlock(
          (norm1): GroupNorm(32, 640, eps=1e-06, affine=True)
          (conv1): Conv3d(640, 640, kernel_size=(3, 1, 1), stride=(1, 1, 1), padding=(1, 0, 0))
          (time_emb_proj): Linear(in_features=1280, out_features=640, bias=True)
          (norm2): GroupNorm(32, 640, eps=1e-06, affine=True)
          (dropout): Dropout(p=0.0, inplace=False)
          (conv2): Conv3d(640, 640, kernel_size=(3, 1, 1), stride=(1, 1, 1), padding=(1, 0, 0))
          (nonlinearity): SiLU()
        )
        (time_mixer): AlphaBlender()
      )
      (1): SpatioTemporalResBlock(
        (spatial_res_block): ResnetBlock2D(
          (norm1): GroupNorm(32, 640, eps=1e-06, affine=True)
          (conv1): Conv2d(640, 640, kernel_size=(3, 3), stride=(1, 1), padding=(1, 1))
          (time_emb_proj): Linear(in_features=1280, out_features=640, bias=True)
          (norm2): GroupNorm(32, 640, eps=1e-06, affine=True)
          (dropout): Dropout(p=0.0, inplace=False)
          (conv2): Conv2d(640, 640, kernel_size=(3, 3), stride=(1, 1), padding=(1, 1))
          (nonlinearity): SiLU()
        )
        (temporal_res_block): TemporalResnetBlock(
          (norm1): GroupNorm(32, 640, eps=1e-06, affine=True)
          (conv1): Conv3d(640, 640, kernel_size=(3, 1, 1), stride=(1, 1, 1), padding=(1, 0, 0))
          (time_emb_proj): Linear(in_features=1280, out_features=640, bias=True)
          (norm2): GroupNorm(32, 640, eps=1e-06, affine=True)
          (dropout): Dropout(p=0.0, inplace=False)
          (conv2): Conv3d(640, 640, kernel_size=(3, 1, 1), stride=(1, 1, 1), padding=(1, 0, 0))
          (nonlinearity): SiLU()
        )
        (time_mixer): AlphaBlender()
      )
    )
    (downsamplers): ModuleList(
      (0): Downsample2D(
        (conv): Conv2d(640, 640, kernel_size=(3, 3), stride=(2, 2), padding=(1, 1))
      )
    )
  )
  (2): CrossAttnDownBlockSpatioTemporal(
    (attentions): ModuleList(
      (0-1): 2 x TransformerSpatioTemporalModel(
        (norm): GroupNorm(32, 1280, eps=1e-06, affine=True)
        (proj_in): Linear(in_features=1280, out_features=1280, bias=True)
        (transformer_blocks): ModuleList(
          (0): BasicTransformerBlock(
            (norm1): LayerNorm((1280,), eps=1e-05, elementwise_affine=True)
            (attn1): Attention(
              (to_q): Linear(in_features=1280, out_features=1280, bias=False)
              (to_k): Linear(in_features=1280, out_features=1280, bias=False)
              (to_v): Linear(in_features=1280, out_features=1280, bias=False)
              (to_out): ModuleList(
                (0): Linear(in_features=1280, out_features=1280, bias=True)
                (1): Dropout(p=0.0, inplace=False)
              )
              (processor): AnimationAttnProcessor()
            )
            (norm2): LayerNorm((1280,), eps=1e-05, elementwise_affine=True)
            (attn2): Attention(
              (to_q): Linear(in_features=1280, out_features=1280, bias=False)
              (to_k): Linear(in_features=1024, out_features=1280, bias=False)
              (to_v): Linear(in_features=1024, out_features=1280, bias=False)
              (to_out): ModuleList(
                (0): Linear(in_features=1280, out_features=1280, bias=True)
                (1): Dropout(p=0.0, inplace=False)
              )
              (processor): AnimationIDAttnNormalizedProcessor(
                (id_to_k): Linear(in_features=1024, out_features=1280, bias=False)
                (id_to_v): Linear(in_features=1024, out_features=1280, bias=False)
              )
            )
            (norm3): LayerNorm((1280,), eps=1e-05, elementwise_affine=True)
            (ff): FeedForward(
              (net): ModuleList(
                (0): GEGLU(
                  (proj): Linear(in_features=1280, out_features=10240, bias=True)
                )
                (1): Dropout(p=0.0, inplace=False)
                (2): Linear(in_features=5120, out_features=1280, bias=True)
              )
            )
          )
        )
        (temporal_transformer_blocks): ModuleList(
          (0): TemporalBasicTransformerBlock(
            (norm_in): LayerNorm((1280,), eps=1e-05, elementwise_affine=True)
            (ff_in): FeedForward(
              (net): ModuleList(
                (0): GEGLU(
                  (proj): Linear(in_features=1280, out_features=10240, bias=True)
                )
                (1): Dropout(p=0.0, inplace=False)
                (2): Linear(in_features=5120, out_features=1280, bias=True)
              )
            )
            (norm1): LayerNorm((1280,), eps=1e-05, elementwise_affine=True)
            (attn1): Attention(
              (to_q): Linear(in_features=1280, out_features=1280, bias=False)
              (to_k): Linear(in_features=1280, out_features=1280, bias=False)
              (to_v): Linear(in_features=1280, out_features=1280, bias=False)
              (to_out): ModuleList(
                (0): Linear(in_features=1280, out_features=1280, bias=True)
                (1): Dropout(p=0.0, inplace=False)
              )
            )
            (norm2): LayerNorm((1280,), eps=1e-05, elementwise_affine=True)
            (attn2): Attention(
              (to_q): Linear(in_features=1280, out_features=1280, bias=False)
              (to_k): Linear(in_features=1024, out_features=1280, bias=False)
              (to_v): Linear(in_features=1024, out_features=1280, bias=False)
              (to_out): ModuleList(
                (0): Linear(in_features=1280, out_features=1280, bias=True)
                (1): Dropout(p=0.0, inplace=False)
              )
            )
            (norm3): LayerNorm((1280,), eps=1e-05, elementwise_affine=True)
            (ff): FeedForward(
              (net): ModuleList(
                (0): GEGLU(
                  (proj): Linear(in_features=1280, out_features=10240, bias=True)
                )
                (1): Dropout(p=0.0, inplace=False)
                (2): Linear(in_features=5120, out_features=1280, bias=True)
              )
            )
          )
        )
        (time_pos_embed): TimestepEmbedding(
          (linear_1): Linear(in_features=1280, out_features=5120, bias=True)
          (act): SiLU()
          (linear_2): Linear(in_features=5120, out_features=1280, bias=True)
        )
        (time_proj): Timesteps()
        (time_mixer): AlphaBlender()
        (proj_out): Linear(in_features=1280, out_features=1280, bias=True)
      )
    )
    (resnets): ModuleList(
      (0): SpatioTemporalResBlock(
        (spatial_res_block): ResnetBlock2D(
          (norm1): GroupNorm(32, 640, eps=1e-06, affine=True)
          (conv1): Conv2d(640, 1280, kernel_size=(3, 3), stride=(1, 1), padding=(1, 1))
          (time_emb_proj): Linear(in_features=1280, out_features=1280, bias=True)
          (norm2): GroupNorm(32, 1280, eps=1e-06, affine=True)
          (dropout): Dropout(p=0.0, inplace=False)
          (conv2): Conv2d(1280, 1280, kernel_size=(3, 3), stride=(1, 1), padding=(1, 1))
          (nonlinearity): SiLU()
          (conv_shortcut): Conv2d(640, 1280, kernel_size=(1, 1), stride=(1, 1))
        )
        (temporal_res_block): TemporalResnetBlock(
          (norm1): GroupNorm(32, 1280, eps=1e-06, affine=True)
          (conv1): Conv3d(1280, 1280, kernel_size=(3, 1, 1), stride=(1, 1, 1), padding=(1, 0, 0))
          (time_emb_proj): Linear(in_features=1280, out_features=1280, bias=True)
          (norm2): GroupNorm(32, 1280, eps=1e-06, affine=True)
          (dropout): Dropout(p=0.0, inplace=False)
          (conv2): Conv3d(1280, 1280, kernel_size=(3, 1, 1), stride=(1, 1, 1), padding=(1, 0, 0))
          (nonlinearity): SiLU()
        )
        (time_mixer): AlphaBlender()
      )
      (1): SpatioTemporalResBlock(
        (spatial_res_block): ResnetBlock2D(
          (norm1): GroupNorm(32, 1280, eps=1e-06, affine=True)
          (conv1): Conv2d(1280, 1280, kernel_size=(3, 3), stride=(1, 1), padding=(1, 1))
          (time_emb_proj): Linear(in_features=1280, out_features=1280, bias=True)
          (norm2): GroupNorm(32, 1280, eps=1e-06, affine=True)
          (dropout): Dropout(p=0.0, inplace=False)
          (conv2): Conv2d(1280, 1280, kernel_size=(3, 3), stride=(1, 1), padding=(1, 1))
          (nonlinearity): SiLU()
        )
        (temporal_res_block): TemporalResnetBlock(
          (norm1): GroupNorm(32, 1280, eps=1e-06, affine=True)
          (conv1): Conv3d(1280, 1280, kernel_size=(3, 1, 1), stride=(1, 1, 1), padding=(1, 0, 0))
          (time_emb_proj): Linear(in_features=1280, out_features=1280, bias=True)
          (norm2): GroupNorm(32, 1280, eps=1e-06, affine=True)
          (dropout): Dropout(p=0.0, inplace=False)
          (conv2): Conv3d(1280, 1280, kernel_size=(3, 1, 1), stride=(1, 1, 1), padding=(1, 0, 0))
          (nonlinearity): SiLU()
        )
        (time_mixer): AlphaBlender()
      )
    )
    (downsamplers): ModuleList(
      (0): Downsample2D(
        (conv): Conv2d(1280, 1280, kernel_size=(3, 3), stride=(2, 2), padding=(1, 1))
      )
    )
  )
  (3): DownBlockSpatioTemporal(
    (resnets): ModuleList(
      (0-1): 2 x SpatioTemporalResBlock(
        (spatial_res_block): ResnetBlock2D(
          (norm1): GroupNorm(32, 1280, eps=1e-05, affine=True)
          (conv1): Conv2d(1280, 1280, kernel_size=(3, 3), stride=(1, 1), padding=(1, 1))
          (time_emb_proj): Linear(in_features=1280, out_features=1280, bias=True)
          (norm2): GroupNorm(32, 1280, eps=1e-05, affine=True)
          (dropout): Dropout(p=0.0, inplace=False)
          (conv2): Conv2d(1280, 1280, kernel_size=(3, 3), stride=(1, 1), padding=(1, 1))
          (nonlinearity): SiLU()
        )
        (temporal_res_block): TemporalResnetBlock(
          (norm1): GroupNorm(32, 1280, eps=1e-05, affine=True)
          (conv1): Conv3d(1280, 1280, kernel_size=(3, 1, 1), stride=(1, 1, 1), padding=(1, 0, 0))
          (time_emb_proj): Linear(in_features=1280, out_features=1280, bias=True)
          (norm2): GroupNorm(32, 1280, eps=1e-05, affine=True)
          (dropout): Dropout(p=0.0, inplace=False)
          (conv2): Conv3d(1280, 1280, kernel_size=(3, 1, 1), stride=(1, 1, 1), padding=(1, 0, 0))
          (nonlinearity): SiLU()
        )
        (time_mixer): AlphaBlender()
      )
    )
  )
)
module.down_blocks.0: CrossAttnDownBlockSpatioTemporal(
  (attentions): ModuleList(
    (0-1): 2 x TransformerSpatioTemporalModel(
      (norm): GroupNorm(32, 320, eps=1e-06, affine=True)
      (proj_in): Linear(in_features=320, out_features=320, bias=True)
      (transformer_blocks): ModuleList(
        (0): BasicTransformerBlock(
          (norm1): LayerNorm((320,), eps=1e-05, elementwise_affine=True)
          (attn1): Attention(
            (to_q): Linear(in_features=320, out_features=320, bias=False)
            (to_k): Linear(in_features=320, out_features=320, bias=False)
            (to_v): Linear(in_features=320, out_features=320, bias=False)
            (to_out): ModuleList(
              (0): Linear(in_features=320, out_features=320, bias=True)
              (1): Dropout(p=0.0, inplace=False)
            )
            (processor): AnimationAttnProcessor()
          )
          (norm2): LayerNorm((320,), eps=1e-05, elementwise_affine=True)
          (attn2): Attention(
            (to_q): Linear(in_features=320, out_features=320, bias=False)
            (to_k): Linear(in_features=1024, out_features=320, bias=False)
            (to_v): Linear(in_features=1024, out_features=320, bias=False)
            (to_out): ModuleList(
              (0): Linear(in_features=320, out_features=320, bias=True)
              (1): Dropout(p=0.0, inplace=False)
            )
            (processor): AnimationIDAttnNormalizedProcessor(
              (id_to_k): Linear(in_features=1024, out_features=320, bias=False)
              (id_to_v): Linear(in_features=1024, out_features=320, bias=False)
            )
          )
          (norm3): LayerNorm((320,), eps=1e-05, elementwise_affine=True)
          (ff): FeedForward(
            (net): ModuleList(
              (0): GEGLU(
                (proj): Linear(in_features=320, out_features=2560, bias=True)
              )
              (1): Dropout(p=0.0, inplace=False)
              (2): Linear(in_features=1280, out_features=320, bias=True)
            )
          )
        )
      )
      (temporal_transformer_blocks): ModuleList(
        (0): TemporalBasicTransformerBlock(
          (norm_in): LayerNorm((320,), eps=1e-05, elementwise_affine=True)
          (ff_in): FeedForward(
            (net): ModuleList(
              (0): GEGLU(
                (proj): Linear(in_features=320, out_features=2560, bias=True)
              )
              (1): Dropout(p=0.0, inplace=False)
              (2): Linear(in_features=1280, out_features=320, bias=True)
            )
          )
          (norm1): LayerNorm((320,), eps=1e-05, elementwise_affine=True)
          (attn1): Attention(
            (to_q): Linear(in_features=320, out_features=320, bias=False)
            (to_k): Linear(in_features=320, out_features=320, bias=False)
            (to_v): Linear(in_features=320, out_features=320, bias=False)
            (to_out): ModuleList(
              (0): Linear(in_features=320, out_features=320, bias=True)
              (1): Dropout(p=0.0, inplace=False)
            )
          )
          (norm2): LayerNorm((320,), eps=1e-05, elementwise_affine=True)
          (attn2): Attention(
            (to_q): Linear(in_features=320, out_features=320, bias=False)
            (to_k): Linear(in_features=1024, out_features=320, bias=False)
            (to_v): Linear(in_features=1024, out_features=320, bias=False)
            (to_out): ModuleList(
              (0): Linear(in_features=320, out_features=320, bias=True)
              (1): Dropout(p=0.0, inplace=False)
            )
          )
          (norm3): LayerNorm((320,), eps=1e-05, elementwise_affine=True)
          (ff): FeedForward(
            (net): ModuleList(
              (0): GEGLU(
                (proj): Linear(in_features=320, out_features=2560, bias=True)
              )
              (1): Dropout(p=0.0, inplace=False)
              (2): Linear(in_features=1280, out_features=320, bias=True)
            )
          )
        )
      )
      (time_pos_embed): TimestepEmbedding(
        (linear_1): Linear(in_features=320, out_features=1280, bias=True)
        (act): SiLU()
        (linear_2): Linear(in_features=1280, out_features=320, bias=True)
      )
      (time_proj): Timesteps()
      (time_mixer): AlphaBlender()
      (proj_out): Linear(in_features=320, out_features=320, bias=True)
    )
  )
  (resnets): ModuleList(
    (0-1): 2 x SpatioTemporalResBlock(
      (spatial_res_block): ResnetBlock2D(
        (norm1): GroupNorm(32, 320, eps=1e-06, affine=True)
        (conv1): Conv2d(320, 320, kernel_size=(3, 3), stride=(1, 1), padding=(1, 1))
        (time_emb_proj): Linear(in_features=1280, out_features=320, bias=True)
        (norm2): GroupNorm(32, 320, eps=1e-06, affine=True)
        (dropout): Dropout(p=0.0, inplace=False)
        (conv2): Conv2d(320, 320, kernel_size=(3, 3), stride=(1, 1), padding=(1, 1))
        (nonlinearity): SiLU()
      )
      (temporal_res_block): TemporalResnetBlock(
        (norm1): GroupNorm(32, 320, eps=1e-06, affine=True)
        (conv1): Conv3d(320, 320, kernel_size=(3, 1, 1), stride=(1, 1, 1), padding=(1, 0, 0))
        (time_emb_proj): Linear(in_features=1280, out_features=320, bias=True)
        (norm2): GroupNorm(32, 320, eps=1e-06, affine=True)
        (dropout): Dropout(p=0.0, inplace=False)
        (conv2): Conv3d(320, 320, kernel_size=(3, 1, 1), stride=(1, 1, 1), padding=(1, 0, 0))
        (nonlinearity): SiLU()
      )
      (time_mixer): AlphaBlender()
    )
  )
  (downsamplers): ModuleList(
    (0): Downsample2D(
      (conv): Conv2d(320, 320, kernel_size=(3, 3), stride=(2, 2), padding=(1, 1))
    )
  )
)
module.down_blocks.0.attentions: ModuleList(
  (0-1): 2 x TransformerSpatioTemporalModel(
    (norm): GroupNorm(32, 320, eps=1e-06, affine=True)
    (proj_in): Linear(in_features=320, out_features=320, bias=True)
    (transformer_blocks): ModuleList(
      (0): BasicTransformerBlock(
        (norm1): LayerNorm((320,), eps=1e-05, elementwise_affine=True)
        (attn1): Attention(
          (to_q): Linear(in_features=320, out_features=320, bias=False)
          (to_k): Linear(in_features=320, out_features=320, bias=False)
          (to_v): Linear(in_features=320, out_features=320, bias=False)
          (to_out): ModuleList(
            (0): Linear(in_features=320, out_features=320, bias=True)
            (1): Dropout(p=0.0, inplace=False)
          )
          (processor): AnimationAttnProcessor()
        )
        (norm2): LayerNorm((320,), eps=1e-05, elementwise_affine=True)
        (attn2): Attention(
          (to_q): Linear(in_features=320, out_features=320, bias=False)
          (to_k): Linear(in_features=1024, out_features=320, bias=False)
          (to_v): Linear(in_features=1024, out_features=320, bias=False)
          (to_out): ModuleList(
            (0): Linear(in_features=320, out_features=320, bias=True)
            (1): Dropout(p=0.0, inplace=False)
          )
          (processor): AnimationIDAttnNormalizedProcessor(
            (id_to_k): Linear(in_features=1024, out_features=320, bias=False)
            (id_to_v): Linear(in_features=1024, out_features=320, bias=False)
          )
        )
        (norm3): LayerNorm((320,), eps=1e-05, elementwise_affine=True)
        (ff): FeedForward(
          (net): ModuleList(
            (0): GEGLU(
              (proj): Linear(in_features=320, out_features=2560, bias=True)
            )
            (1): Dropout(p=0.0, inplace=False)
            (2): Linear(in_features=1280, out_features=320, bias=True)
          )
        )
      )
    )
    (temporal_transformer_blocks): ModuleList(
      (0): TemporalBasicTransformerBlock(
        (norm_in): LayerNorm((320,), eps=1e-05, elementwise_affine=True)
        (ff_in): FeedForward(
          (net): ModuleList(
            (0): GEGLU(
              (proj): Linear(in_features=320, out_features=2560, bias=True)
            )
            (1): Dropout(p=0.0, inplace=False)
            (2): Linear(in_features=1280, out_features=320, bias=True)
          )
        )
        (norm1): LayerNorm((320,), eps=1e-05, elementwise_affine=True)
        (attn1): Attention(
          (to_q): Linear(in_features=320, out_features=320, bias=False)
          (to_k): Linear(in_features=320, out_features=320, bias=False)
          (to_v): Linear(in_features=320, out_features=320, bias=False)
          (to_out): ModuleList(
            (0): Linear(in_features=320, out_features=320, bias=True)
            (1): Dropout(p=0.0, inplace=False)
          )
        )
        (norm2): LayerNorm((320,), eps=1e-05, elementwise_affine=True)
        (attn2): Attention(
          (to_q): Linear(in_features=320, out_features=320, bias=False)
          (to_k): Linear(in_features=1024, out_features=320, bias=False)
          (to_v): Linear(in_features=1024, out_features=320, bias=False)
          (to_out): ModuleList(
            (0): Linear(in_features=320, out_features=320, bias=True)
            (1): Dropout(p=0.0, inplace=False)
          )
        )
        (norm3): LayerNorm((320,), eps=1e-05, elementwise_affine=True)
        (ff): FeedForward(
          (net): ModuleList(
            (0): GEGLU(
              (proj): Linear(in_features=320, out_features=2560, bias=True)
            )
            (1): Dropout(p=0.0, inplace=False)
            (2): Linear(in_features=1280, out_features=320, bias=True)
          )
        )
      )
    )
    (time_pos_embed): TimestepEmbedding(
      (linear_1): Linear(in_features=320, out_features=1280, bias=True)
      (act): SiLU()
      (linear_2): Linear(in_features=1280, out_features=320, bias=True)
    )
    (time_proj): Timesteps()
    (time_mixer): AlphaBlender()
    (proj_out): Linear(in_features=320, out_features=320, bias=True)
  )
)
module.down_blocks.0.attentions.0: TransformerSpatioTemporalModel(
  (norm): GroupNorm(32, 320, eps=1e-06, affine=True)
  (proj_in): Linear(in_features=320, out_features=320, bias=True)
  (transformer_blocks): ModuleList(
    (0): BasicTransformerBlock(
      (norm1): LayerNorm((320,), eps=1e-05, elementwise_affine=True)
      (attn1): Attention(
        (to_q): Linear(in_features=320, out_features=320, bias=False)
        (to_k): Linear(in_features=320, out_features=320, bias=False)
        (to_v): Linear(in_features=320, out_features=320, bias=False)
        (to_out): ModuleList(
          (0): Linear(in_features=320, out_features=320, bias=True)
          (1): Dropout(p=0.0, inplace=False)
        )
        (processor): AnimationAttnProcessor()
      )
      (norm2): LayerNorm((320,), eps=1e-05, elementwise_affine=True)
      (attn2): Attention(
        (to_q): Linear(in_features=320, out_features=320, bias=False)
        (to_k): Linear(in_features=1024, out_features=320, bias=False)
        (to_v): Linear(in_features=1024, out_features=320, bias=False)
        (to_out): ModuleList(
          (0): Linear(in_features=320, out_features=320, bias=True)
          (1): Dropout(p=0.0, inplace=False)
        )
        (processor): AnimationIDAttnNormalizedProcessor(
          (id_to_k): Linear(in_features=1024, out_features=320, bias=False)
          (id_to_v): Linear(in_features=1024, out_features=320, bias=False)
        )
      )
      (norm3): LayerNorm((320,), eps=1e-05, elementwise_affine=True)
      (ff): FeedForward(
        (net): ModuleList(
          (0): GEGLU(
            (proj): Linear(in_features=320, out_features=2560, bias=True)
          )
          (1): Dropout(p=0.0, inplace=False)
          (2): Linear(in_features=1280, out_features=320, bias=True)
        )
      )
    )
  )
  (temporal_transformer_blocks): ModuleList(
    (0): TemporalBasicTransformerBlock(
      (norm_in): LayerNorm((320,), eps=1e-05, elementwise_affine=True)
      (ff_in): FeedForward(
        (net): ModuleList(
          (0): GEGLU(
            (proj): Linear(in_features=320, out_features=2560, bias=True)
          )
          (1): Dropout(p=0.0, inplace=False)
          (2): Linear(in_features=1280, out_features=320, bias=True)
        )
      )
      (norm1): LayerNorm((320,), eps=1e-05, elementwise_affine=True)
      (attn1): Attention(
        (to_q): Linear(in_features=320, out_features=320, bias=False)
        (to_k): Linear(in_features=320, out_features=320, bias=False)
        (to_v): Linear(in_features=320, out_features=320, bias=False)
        (to_out): ModuleList(
          (0): Linear(in_features=320, out_features=320, bias=True)
          (1): Dropout(p=0.0, inplace=False)
        )
      )
      (norm2): LayerNorm((320,), eps=1e-05, elementwise_affine=True)
      (attn2): Attention(
        (to_q): Linear(in_features=320, out_features=320, bias=False)
        (to_k): Linear(in_features=1024, out_features=320, bias=False)
        (to_v): Linear(in_features=1024, out_features=320, bias=False)
        (to_out): ModuleList(
          (0): Linear(in_features=320, out_features=320, bias=True)
          (1): Dropout(p=0.0, inplace=False)
        )
      )
      (norm3): LayerNorm((320,), eps=1e-05, elementwise_affine=True)
      (ff): FeedForward(
        (net): ModuleList(
          (0): GEGLU(
            (proj): Linear(in_features=320, out_features=2560, bias=True)
          )
          (1): Dropout(p=0.0, inplace=False)
          (2): Linear(in_features=1280, out_features=320, bias=True)
        )
      )
    )
  )
  (time_pos_embed): TimestepEmbedding(
    (linear_1): Linear(in_features=320, out_features=1280, bias=True)
    (act): SiLU()
    (linear_2): Linear(in_features=1280, out_features=320, bias=True)
  )
  (time_proj): Timesteps()
  (time_mixer): AlphaBlender()
  (proj_out): Linear(in_features=320, out_features=320, bias=True)
)
module.down_blocks.0.attentions.0.norm: GroupNorm(32, 320, eps=1e-06, affine=True)
module.down_blocks.0.attentions.0.proj_in: Linear(in_features=320, out_features=320, bias=True)
module.down_blocks.0.attentions.0.transformer_blocks: ModuleList(
  (0): BasicTransformerBlock(
    (norm1): LayerNorm((320,), eps=1e-05, elementwise_affine=True)
    (attn1): Attention(
      (to_q): Linear(in_features=320, out_features=320, bias=False)
      (to_k): Linear(in_features=320, out_features=320, bias=False)
      (to_v): Linear(in_features=320, out_features=320, bias=False)
      (to_out): ModuleList(
        (0): Linear(in_features=320, out_features=320, bias=True)
        (1): Dropout(p=0.0, inplace=False)
      )
      (processor): AnimationAttnProcessor()
    )
    (norm2): LayerNorm((320,), eps=1e-05, elementwise_affine=True)
    (attn2): Attention(
      (to_q): Linear(in_features=320, out_features=320, bias=False)
      (to_k): Linear(in_features=1024, out_features=320, bias=False)
      (to_v): Linear(in_features=1024, out_features=320, bias=False)
      (to_out): ModuleList(
        (0): Linear(in_features=320, out_features=320, bias=True)
        (1): Dropout(p=0.0, inplace=False)
      )
      (processor): AnimationIDAttnNormalizedProcessor(
        (id_to_k): Linear(in_features=1024, out_features=320, bias=False)
        (id_to_v): Linear(in_features=1024, out_features=320, bias=False)
      )
    )
    (norm3): LayerNorm((320,), eps=1e-05, elementwise_affine=True)
    (ff): FeedForward(
      (net): ModuleList(
        (0): GEGLU(
          (proj): Linear(in_features=320, out_features=2560, bias=True)
        )
        (1): Dropout(p=0.0, inplace=False)
        (2): Linear(in_features=1280, out_features=320, bias=True)
      )
    )
  )
)
module.down_blocks.0.attentions.0.transformer_blocks.0: BasicTransformerBlock(
  (norm1): LayerNorm((320,), eps=1e-05, elementwise_affine=True)
  (attn1): Attention(
    (to_q): Linear(in_features=320, out_features=320, bias=False)
    (to_k): Linear(in_features=320, out_features=320, bias=False)
    (to_v): Linear(in_features=320, out_features=320, bias=False)
    (to_out): ModuleList(
      (0): Linear(in_features=320, out_features=320, bias=True)
      (1): Dropout(p=0.0, inplace=False)
    )
    (processor): AnimationAttnProcessor()
  )
  (norm2): LayerNorm((320,), eps=1e-05, elementwise_affine=True)
  (attn2): Attention(
    (to_q): Linear(in_features=320, out_features=320, bias=False)
    (to_k): Linear(in_features=1024, out_features=320, bias=False)
    (to_v): Linear(in_features=1024, out_features=320, bias=False)
    (to_out): ModuleList(
      (0): Linear(in_features=320, out_features=320, bias=True)
      (1): Dropout(p=0.0, inplace=False)
    )
    (processor): AnimationIDAttnNormalizedProcessor(
      (id_to_k): Linear(in_features=1024, out_features=320, bias=False)
      (id_to_v): Linear(in_features=1024, out_features=320, bias=False)
    )
  )
  (norm3): LayerNorm((320,), eps=1e-05, elementwise_affine=True)
  (ff): FeedForward(
    (net): ModuleList(
      (0): GEGLU(
        (proj): Linear(in_features=320, out_features=2560, bias=True)
      )
      (1): Dropout(p=0.0, inplace=False)
      (2): Linear(in_features=1280, out_features=320, bias=True)
    )
  )
)
module.down_blocks.0.attentions.0.transformer_blocks.0.norm1: LayerNorm((320,), eps=1e-05, elementwise_affine=True)
module.down_blocks.0.attentions.0.transformer_blocks.0.attn1: Attention(
  (to_q): Linear(in_features=320, out_features=320, bias=False)
  (to_k): Linear(in_features=320, out_features=320, bias=False)
  (to_v): Linear(in_features=320, out_features=320, bias=False)
  (to_out): ModuleList(
    (0): Linear(in_features=320, out_features=320, bias=True)
    (1): Dropout(p=0.0, inplace=False)
  )
  (processor): AnimationAttnProcessor()
)
module.down_blocks.0.attentions.0.transformer_blocks.0.attn1.to_q: Linear(in_features=320, out_features=320, bias=False)
…
      (to_v): Linear(in_features=1024, out_features=320, bias=False)
      (to_out): ModuleList(
        (0): Linear(in_features=320, out_features=320, bias=True)
        (1): Dropout(p=0.0, inplace=False)
      )
    )
    (norm3): LayerNorm((320,), eps=1e-05, elementwise_affine=True)
    (ff): FeedForward(
      (net): ModuleList(
        (0): GEGLU(
          (proj): Linear(in_features=320, out_features=2560, bias=True)
        )
        (1): Dropout(p=0.0, inplace=False)
        (2): Linear(in_features=1280, out_features=320, bias=True)
      )
    )
  )
)
module.up_blocks.3.attentions.2.temporal_transformer_blocks.0: TemporalBasicTransformerBlock(
  (norm_in): LayerNorm((320,), eps=1e-05, elementwise_affine=True)
  (ff_in): FeedForward(
    (net): ModuleList(
      (0): GEGLU(
        (proj): Linear(in_features=320, out_features=2560, bias=True)
      )
      (1): Dropout(p=0.0, inplace=False)
      (2): Linear(in_features=1280, out_features=320, bias=True)
    )
  )
  (norm1): LayerNorm((320,), eps=1e-05, elementwise_affine=True)
  (attn1): Attention(
    (to_q): Linear(in_features=320, out_features=320, bias=False)
    (to_k): Linear(in_features=320, out_features=320, bias=False)
    (to_v): Linear(in_features=320, out_features=320, bias=False)
    (to_out): ModuleList(
      (0): Linear(in_features=320, out_features=320, bias=True)
      (1): Dropout(p=0.0, inplace=False)
    )
  )
  (norm2): LayerNorm((320,), eps=1e-05, elementwise_affine=True)
  (attn2): Attention(
    (to_q): Linear(in_features=320, out_features=320, bias=False)
    (to_k): Linear(in_features=1024, out_features=320, bias=False)
    (to_v): Linear(in_features=1024, out_features=320, bias=False)
    (to_out): ModuleList(
      (0): Linear(in_features=320, out_features=320, bias=True)
      (1): Dropout(p=0.0, inplace=False)
    )
  )
  (norm3): LayerNorm((320,), eps=1e-05, elementwise_affine=True)
  (ff): FeedForward(
    (net): ModuleList(
      (0): GEGLU(
        (proj): Linear(in_features=320, out_features=2560, bias=True)
      )
      (1): Dropout(p=0.0, inplace=False)
      (2): Linear(in_features=1280, out_features=320, bias=True)
    )
  )
)
module.up_blocks.3.attentions.2.temporal_transformer_blocks.0.norm_in: LayerNorm((320,), eps=1e-05, elementwise_affine=True)
module.up_blocks.3.attentions.2.temporal_transformer_blocks.0.ff_in: FeedForward(
  (net): ModuleList(
    (0): GEGLU(
      (proj): Linear(in_features=320, out_features=2560, bias=True)
    )
    (1): Dropout(p=0.0, inplace=False)
    (2): Linear(in_features=1280, out_features=320, bias=True)
  )
)
module.up_blocks.3.attentions.2.temporal_transformer_blocks.0.ff_in.net: ModuleList(
  (0): GEGLU(
    (proj): Linear(in_features=320, out_features=2560, bias=True)
  )
  (1): Dropout(p=0.0, inplace=False)
  (2): Linear(in_features=1280, out_features=320, bias=True)
)
module.up_blocks.3.attentions.2.temporal_transformer_blocks.0.ff_in.net.0: GEGLU(
  (proj): Linear(in_features=320, out_features=2560, bias=True)
)
module.up_blocks.3.attentions.2.temporal_transformer_blocks.0.ff_in.net.0.proj: Linear(in_features=320, out_features=2560, bias=True)
module.up_blocks.3.attentions.2.temporal_transformer_blocks.0.ff_in.net.1: Dropout(p=0.0, inplace=False)
module.up_blocks.3.attentions.2.temporal_transformer_blocks.0.ff_in.net.2: Linear(in_features=1280, out_features=320, bias=True)
module.up_blocks.3.attentions.2.temporal_transformer_blocks.0.norm1: LayerNorm((320,), eps=1e-05, elementwise_affine=True)
module.up_blocks.3.attentions.2.temporal_transformer_blocks.0.attn1: Attention(
  (to_q): Linear(in_features=320, out_features=320, bias=False)
  (to_k): Linear(in_features=320, out_features=320, bias=False)
  (to_v): Linear(in_features=320, out_features=320, bias=False)
  (to_out): ModuleList(
    (0): Linear(in_features=320, out_features=320, bias=True)
    (1): Dropout(p=0.0, inplace=False)
  )
)
module.up_blocks.3.attentions.2.temporal_transformer_blocks.0.attn1.to_q: Linear(in_features=320, out_features=320, bias=False)
module.up_blocks.3.attentions.2.temporal_transformer_blocks.0.attn1.to_k: Linear(in_features=320, out_features=320, bias=False)
module.up_blocks.3.attentions.2.temporal_transformer_blocks.0.attn1.to_v: Linear(in_features=320, out_features=320, bias=False)
module.up_blocks.3.attentions.2.temporal_transformer_blocks.0.attn1.to_out: ModuleList(
  (0): Linear(in_features=320, out_features=320, bias=True)
  (1): Dropout(p=0.0, inplace=False)
)
module.up_blocks.3.attentions.2.temporal_transformer_blocks.0.attn1.to_out.0: Linear(in_features=320, out_features=320, bias=True)
module.up_blocks.3.attentions.2.temporal_transformer_blocks.0.attn1.to_out.1: Dropout(p=0.0, inplace=False)
module.up_blocks.3.attentions.2.temporal_transformer_blocks.0.norm2: LayerNorm((320,), eps=1e-05, elementwise_affine=True)
module.up_blocks.3.attentions.2.temporal_transformer_blocks.0.attn2: Attention(
  (to_q): Linear(in_features=320, out_features=320, bias=False)
  (to_k): Linear(in_features=1024, out_features=320, bias=False)
  (to_v): Linear(in_features=1024, out_features=320, bias=False)
  (to_out): ModuleList(
    (0): Linear(in_features=320, out_features=320, bias=True)
    (1): Dropout(p=0.0, inplace=False)
  )
)
module.up_blocks.3.attentions.2.temporal_transformer_blocks.0.attn2.to_q: Linear(in_features=320, out_features=320, bias=False)
module.up_blocks.3.attentions.2.temporal_transformer_blocks.0.attn2.to_k: Linear(in_features=1024, out_features=320, bias=False)
module.up_blocks.3.attentions.2.temporal_transformer_blocks.0.attn2.to_v: Linear(in_features=1024, out_features=320, bias=False)
module.up_blocks.3.attentions.2.temporal_transformer_blocks.0.attn2.to_out: ModuleList(
  (0): Linear(in_features=320, out_features=320, bias=True)
  (1): Dropout(p=0.0, inplace=False)
)
module.up_blocks.3.attentions.2.temporal_transformer_blocks.0.attn2.to_out.0: Linear(in_features=320, out_features=320, bias=True)
module.up_blocks.3.attentions.2.temporal_transformer_blocks.0.attn2.to_out.1: Dropout(p=0.0, inplace=False)
module.up_blocks.3.attentions.2.temporal_transformer_blocks.0.norm3: LayerNorm((320,), eps=1e-05, elementwise_affine=True)
module.up_blocks.3.attentions.2.temporal_transformer_blocks.0.ff: FeedForward(
  (net): ModuleList(
    (0): GEGLU(
      (proj): Linear(in_features=320, out_features=2560, bias=True)
    )
    (1): Dropout(p=0.0, inplace=False)
    (2): Linear(in_features=1280, out_features=320, bias=True)
  )
)
module.up_blocks.3.attentions.2.temporal_transformer_blocks.0.ff.net: ModuleList(
  (0): GEGLU(
    (proj): Linear(in_features=320, out_features=2560, bias=True)
  )
  (1): Dropout(p=0.0, inplace=False)
  (2): Linear(in_features=1280, out_features=320, bias=True)
)
module.up_blocks.3.attentions.2.temporal_transformer_blocks.0.ff.net.0: GEGLU(
  (proj): Linear(in_features=320, out_features=2560, bias=True)
)
module.up_blocks.3.attentions.2.temporal_transformer_blocks.0.ff.net.0.proj: Linear(in_features=320, out_features=2560, bias=True)
module.up_blocks.3.attentions.2.temporal_transformer_blocks.0.ff.net.1: Dropout(p=0.0, inplace=False)
module.up_blocks.3.attentions.2.temporal_transformer_blocks.0.ff.net.2: Linear(in_features=1280, out_features=320, bias=True)
module.up_blocks.3.attentions.2.time_pos_embed: TimestepEmbedding(
  (linear_1): Linear(in_features=320, out_features=1280, bias=True)
  (act): SiLU()
  (linear_2): Linear(in_features=1280, out_features=320, bias=True)
)
module.up_blocks.3.attentions.2.time_pos_embed.linear_1: Linear(in_features=320, out_features=1280, bias=True)
module.up_blocks.3.attentions.2.time_pos_embed.linear_2: Linear(in_features=1280, out_features=320, bias=True)
module.up_blocks.3.attentions.2.time_proj: Timesteps()
module.up_blocks.3.attentions.2.time_mixer: AlphaBlender()
module.up_blocks.3.attentions.2.proj_out: Linear(in_features=320, out_features=320, bias=True)
module.up_blocks.3.resnets: ModuleList(
  (0): SpatioTemporalResBlock(
    (spatial_res_block): ResnetBlock2D(
      (norm1): GroupNorm(32, 960, eps=1e-06, affine=True)
      (conv1): Conv2d(960, 320, kernel_size=(3, 3), stride=(1, 1), padding=(1, 1))
      (time_emb_proj): Linear(in_features=1280, out_features=320, bias=True)
      (norm2): GroupNorm(32, 320, eps=1e-06, affine=True)
      (dropout): Dropout(p=0.0, inplace=False)
      (conv2): Conv2d(320, 320, kernel_size=(3, 3), stride=(1, 1), padding=(1, 1))
      (nonlinearity): SiLU()
      (conv_shortcut): Conv2d(960, 320, kernel_size=(1, 1), stride=(1, 1))
    )
    (temporal_res_block): TemporalResnetBlock(
      (norm1): GroupNorm(32, 320, eps=1e-06, affine=True)
      (conv1): Conv3d(320, 320, kernel_size=(3, 1, 1), stride=(1, 1, 1), padding=(1, 0, 0))
      (time_emb_proj): Linear(in_features=1280, out_features=320, bias=True)
      (norm2): GroupNorm(32, 320, eps=1e-06, affine=True)
      (dropout): Dropout(p=0.0, inplace=False)
      (conv2): Conv3d(320, 320, kernel_size=(3, 1, 1), stride=(1, 1, 1), padding=(1, 0, 0))
      (nonlinearity): SiLU()
    )
    (time_mixer): AlphaBlender()
  )
  (1-2): 2 x SpatioTemporalResBlock(
    (spatial_res_block): ResnetBlock2D(
      (norm1): GroupNorm(32, 640, eps=1e-06, affine=True)
      (conv1): Conv2d(640, 320, kernel_size=(3, 3), stride=(1, 1), padding=(1, 1))
      (time_emb_proj): Linear(in_features=1280, out_features=320, bias=True)
      (norm2): GroupNorm(32, 320, eps=1e-06, affine=True)
      (dropout): Dropout(p=0.0, inplace=False)
      (conv2): Conv2d(320, 320, kernel_size=(3, 3), stride=(1, 1), padding=(1, 1))
      (nonlinearity): SiLU()
      (conv_shortcut): Conv2d(640, 320, kernel_size=(1, 1), stride=(1, 1))
    )
    (temporal_res_block): TemporalResnetBlock(
      (norm1): GroupNorm(32, 320, eps=1e-06, affine=True)
      (conv1): Conv3d(320, 320, kernel_size=(3, 1, 1), stride=(1, 1, 1), padding=(1, 0, 0))
      (time_emb_proj): Linear(in_features=1280, out_features=320, bias=True)
      (norm2): GroupNorm(32, 320, eps=1e-06, affine=True)
      (dropout): Dropout(p=0.0, inplace=False)
      (conv2): Conv3d(320, 320, kernel_size=(3, 1, 1), stride=(1, 1, 1), padding=(1, 0, 0))
      (nonlinearity): SiLU()
    )
    (time_mixer): AlphaBlender()
  )
)
module.up_blocks.3.resnets.0: SpatioTemporalResBlock(
  (spatial_res_block): ResnetBlock2D(
    (norm1): GroupNorm(32, 960, eps=1e-06, affine=True)
    (conv1): Conv2d(960, 320, kernel_size=(3, 3), stride=(1, 1), padding=(1, 1))
    (time_emb_proj): Linear(in_features=1280, out_features=320, bias=True)
    (norm2): GroupNorm(32, 320, eps=1e-06, affine=True)
    (dropout): Dropout(p=0.0, inplace=False)
    (conv2): Conv2d(320, 320, kernel_size=(3, 3), stride=(1, 1), padding=(1, 1))
    (nonlinearity): SiLU()
    (conv_shortcut): Conv2d(960, 320, kernel_size=(1, 1), stride=(1, 1))
  )
  (temporal_res_block): TemporalResnetBlock(
    (norm1): GroupNorm(32, 320, eps=1e-06, affine=True)
    (conv1): Conv3d(320, 320, kernel_size=(3, 1, 1), stride=(1, 1, 1), padding=(1, 0, 0))
    (time_emb_proj): Linear(in_features=1280, out_features=320, bias=True)
    (norm2): GroupNorm(32, 320, eps=1e-06, affine=True)
    (dropout): Dropout(p=0.0, inplace=False)
    (conv2): Conv3d(320, 320, kernel_size=(3, 1, 1), stride=(1, 1, 1), padding=(1, 0, 0))
    (nonlinearity): SiLU()
  )
  (time_mixer): AlphaBlender()
)
module.up_blocks.3.resnets.0.spatial_res_block: ResnetBlock2D(
  (norm1): GroupNorm(32, 960, eps=1e-06, affine=True)
  (conv1): Conv2d(960, 320, kernel_size=(3, 3), stride=(1, 1), padding=(1, 1))
  (time_emb_proj): Linear(in_features=1280, out_features=320, bias=True)
  (norm2): GroupNorm(32, 320, eps=1e-06, affine=True)
  (dropout): Dropout(p=0.0, inplace=False)
  (conv2): Conv2d(320, 320, kernel_size=(3, 3), stride=(1, 1), padding=(1, 1))
  (nonlinearity): SiLU()
  (conv_shortcut): Conv2d(960, 320, kernel_size=(1, 1), stride=(1, 1))
)
module.up_blocks.3.resnets.0.spatial_res_block.norm1: GroupNorm(32, 960, eps=1e-06, affine=True)
module.up_blocks.3.resnets.0.spatial_res_block.conv1: Conv2d(960, 320, kernel_size=(3, 3), stride=(1, 1), padding=(1, 1))
module.up_blocks.3.resnets.0.spatial_res_block.time_emb_proj: Linear(in_features=1280, out_features=320, bias=True)
module.up_blocks.3.resnets.0.spatial_res_block.norm2: GroupNorm(32, 320, eps=1e-06, affine=True)
…
module.up_blocks.3.resnets.0.temporal_res_block.time_emb_proj: Linear(in_features=1280, out_features=320, bias=True)
module.up_blocks.3.resnets.0.temporal_res_block.norm2: GroupNorm(32, 320, eps=1e-06, affine=True)
module.up_blocks.3.resnets.0.temporal_res_block.dropout: Dropout(p=0.0, inplace=False)
module.up_blocks.3.resnets.0.temporal_res_block.conv2: Conv3d(320, 320, kernel_size=(3, 1, 1), stride=(1, 1, 1), padding=(1, 0, 0))
module.up_blocks.3.resnets.0.time_mixer: AlphaBlender()
module.up_blocks.3.resnets.1: SpatioTemporalResBlock(
  (spatial_res_block): ResnetBlock2D(
    (norm1): GroupNorm(32, 640, eps=1e-06, affine=True)
    (conv1): Conv2d(640, 320, kernel_size=(3, 3), stride=(1, 1), padding=(1, 1))
    (time_emb_proj): Linear(in_features=1280, out_features=320, bias=True)
    (norm2): GroupNorm(32, 320, eps=1e-06, affine=True)
    (dropout): Dropout(p=0.0, inplace=False)
    (conv2): Conv2d(320, 320, kernel_size=(3, 3), stride=(1, 1), padding=(1, 1))
    (nonlinearity): SiLU()
    (conv_shortcut): Conv2d(640, 320, kernel_size=(1, 1), stride=(1, 1))
  )
  (temporal_res_block): TemporalResnetBlock(
    (norm1): GroupNorm(32, 320, eps=1e-06, affine=True)
    (conv1): Conv3d(320, 320, kernel_size=(3, 1, 1), stride=(1, 1, 1), padding=(1, 0, 0))
    (time_emb_proj): Linear(in_features=1280, out_features=320, bias=True)
    (norm2): GroupNorm(32, 320, eps=1e-06, affine=True)
    (dropout): Dropout(p=0.0, inplace=False)
    (conv2): Conv3d(320, 320, kernel_size=(3, 1, 1), stride=(1, 1, 1), padding=(1, 0, 0))
    (nonlinearity): SiLU()
  )
  (time_mixer): AlphaBlender()
)
module.up_blocks.3.resnets.1.spatial_res_block: ResnetBlock2D(
  (norm1): GroupNorm(32, 640, eps=1e-06, affine=True)
  (conv1): Conv2d(640, 320, kernel_size=(3, 3), stride=(1, 1), padding=(1, 1))
  (time_emb_proj): Linear(in_features=1280, out_features=320, bias=True)
  (norm2): GroupNorm(32, 320, eps=1e-06, affine=True)
  (dropout): Dropout(p=0.0, inplace=False)
  (conv2): Conv2d(320, 320, kernel_size=(3, 3), stride=(1, 1), padding=(1, 1))
  (nonlinearity): SiLU()
  (conv_shortcut): Conv2d(640, 320, kernel_size=(1, 1), stride=(1, 1))
)
module.up_blocks.3.resnets.1.spatial_res_block.norm1: GroupNorm(32, 640, eps=1e-06, affine=True)
module.up_blocks.3.resnets.1.spatial_res_block.conv1: Conv2d(640, 320, kernel_size=(3, 3), stride=(1, 1), padding=(1, 1))
module.up_blocks.3.resnets.1.spatial_res_block.time_emb_proj: Linear(in_features=1280, out_features=320, bias=True)
module.up_blocks.3.resnets.1.spatial_res_block.norm2: GroupNorm(32, 320, eps=1e-06, affine=True)
…
module.up_blocks.3.resnets.2.temporal_res_block.time_emb_proj: Linear(in_features=1280, out_features=320, bias=True)
module.up_blocks.3.resnets.2.temporal_res_block.norm2: GroupNorm(32, 320, eps=1e-06, affine=True)
module.up_blocks.3.resnets.2.temporal_res_block.dropout: Dropout(p=0.0, inplace=False)
module.up_blocks.3.resnets.2.temporal_res_block.conv2: Conv3d(320, 320, kernel_size=(3, 1, 1), stride=(1, 1, 1), padding=(1, 0, 0))
module.up_blocks.3.resnets.2.time_mixer: AlphaBlender()
module.mid_block: UNetMidBlockSpatioTemporal(
  (attentions): ModuleList(
    (0): TransformerSpatioTemporalModel(
      (norm): GroupNorm(32, 1280, eps=1e-06, affine=True)
      (proj_in): Linear(in_features=1280, out_features=1280, bias=True)
      (transformer_blocks): ModuleList(
        (0): BasicTransformerBlock(
          (norm1): LayerNorm((1280,), eps=1e-05, elementwise_affine=True)
          (attn1): Attention(
            (to_q): Linear(in_features=1280, out_features=1280, bias=False)
            (to_k): Linear(in_features=1280, out_features=1280, bias=False)
            (to_v): Linear(in_features=1280, out_features=1280, bias=False)
            (to_out): ModuleList(
              (0): Linear(in_features=1280, out_features=1280, bias=True)
              (1): Dropout(p=0.0, inplace=False)
            )
            (processor): AnimationAttnProcessor()
          )
          (norm2): LayerNorm((1280,), eps=1e-05, elementwise_affine=True)
          (attn2): Attention(
            (to_q): Linear(in_features=1280, out_features=1280, bias=False)
            (to_k): Linear(in_features=1024, out_features=1280, bias=False)
            (to_v): Linear(in_features=1024, out_features=1280, bias=False)
            (to_out): ModuleList(
              (0): Linear(in_features=1280, out_features=1280, bias=True)
              (1): Dropout(p=0.0, inplace=False)
            )
            (processor): AnimationIDAttnNormalizedProcessor(
              (id_to_k): Linear(in_features=1024, out_features=1280, bias=False)
              (id_to_v): Linear(in_features=1024, out_features=1280, bias=False)
            )
          )
          (norm3): LayerNorm((1280,), eps=1e-05, elementwise_affine=True)
          (ff): FeedForward(
            (net): ModuleList(
              (0): GEGLU(
                (proj): Linear(in_features=1280, out_features=10240, bias=True)
              )
              (1): Dropout(p=0.0, inplace=False)
              (2): Linear(in_features=5120, out_features=1280, bias=True)
            )
          )
        )
      )
      (temporal_transformer_blocks): ModuleList(
        (0): TemporalBasicTransformerBlock(
          (norm_in): LayerNorm((1280,), eps=1e-05, elementwise_affine=True)
          (ff_in): FeedForward(
            (net): ModuleList(
              (0): GEGLU(
                (proj): Linear(in_features=1280, out_features=10240, bias=True)
              )
              (1): Dropout(p=0.0, inplace=False)
              (2): Linear(in_features=5120, out_features=1280, bias=True)
            )
          )
          (norm1): LayerNorm((1280,), eps=1e-05, elementwise_affine=True)
          (attn1): Attention(
            (to_q): Linear(in_features=1280, out_features=1280, bias=False)
            (to_k): Linear(in_features=1280, out_features=1280, bias=False)
            (to_v): Linear(in_features=1280, out_features=1280, bias=False)
            (to_out): ModuleList(
              (0): Linear(in_features=1280, out_features=1280, bias=True)
              (1): Dropout(p=0.0, inplace=False)
            )
          )
          (norm2): LayerNorm((1280,), eps=1e-05, elementwise_affine=True)
          (attn2): Attention(
            (to_q): Linear(in_features=1280, out_features=1280, bias=False)
            (to_k): Linear(in_features=1024, out_features=1280, bias=False)
            (to_v): Linear(in_features=1024, out_features=1280, bias=False)
            (to_out): ModuleList(
              (0): Linear(in_features=1280, out_features=1280, bias=True)
              (1): Dropout(p=0.0, inplace=False)
            )
          )
          (norm3): LayerNorm((1280,), eps=1e-05, elementwise_affine=True)
          (ff): FeedForward(
            (net): ModuleList(
              (0): GEGLU(
                (proj): Linear(in_features=1280, out_features=10240, bias=True)
              )
              (1): Dropout(p=0.0, inplace=False)
              (2): Linear(in_features=5120, out_features=1280, bias=True)
            )
          )
        )
      )
      (time_pos_embed): TimestepEmbedding(
        (linear_1): Linear(in_features=1280, out_features=5120, bias=True)
        (act): SiLU()
        (linear_2): Linear(in_features=5120, out_features=1280, bias=True)
      )
      (time_proj): Timesteps()
      (time_mixer): AlphaBlender()
      (proj_out): Linear(in_features=1280, out_features=1280, bias=True)
    )
  )
  (resnets): ModuleList(
    (0-1): 2 x SpatioTemporalResBlock(
      (spatial_res_block): ResnetBlock2D(
        (norm1): GroupNorm(32, 1280, eps=1e-05, affine=True)
        (conv1): Conv2d(1280, 1280, kernel_size=(3, 3), stride=(1, 1), padding=(1, 1))
        (time_emb_proj): Linear(in_features=1280, out_features=1280, bias=True)
        (norm2): GroupNorm(32, 1280, eps=1e-05, affine=True)
        (dropout): Dropout(p=0.0, inplace=False)
        (conv2): Conv2d(1280, 1280, kernel_size=(3, 3), stride=(1, 1), padding=(1, 1))
        (nonlinearity): SiLU()
      )
      (temporal_res_block): TemporalResnetBlock(
        (norm1): GroupNorm(32, 1280, eps=1e-05, affine=True)
        (conv1): Conv3d(1280, 1280, kernel_size=(3, 1, 1), stride=(1, 1, 1), padding=(1, 0, 0))
        (time_emb_proj): Linear(in_features=1280, out_features=1280, bias=True)
        (norm2): GroupNorm(32, 1280, eps=1e-05, affine=True)
        (dropout): Dropout(p=0.0, inplace=False)
        (conv2): Conv3d(1280, 1280, kernel_size=(3, 1, 1), stride=(1, 1, 1), padding=(1, 0, 0))
        (nonlinearity): SiLU()
      )
      (time_mixer): AlphaBlender()
    )
  )
)
module.mid_block.attentions: ModuleList(
  (0): TransformerSpatioTemporalModel(
    (norm): GroupNorm(32, 1280, eps=1e-06, affine=True)
    (proj_in): Linear(in_features=1280, out_features=1280, bias=True)
    (transformer_blocks): ModuleList(
      (0): BasicTransformerBlock(
        (norm1): LayerNorm((1280,), eps=1e-05, elementwise_affine=True)
        (attn1): Attention(
          (to_q): Linear(in_features=1280, out_features=1280, bias=False)
          (to_k): Linear(in_features=1280, out_features=1280, bias=False)
          (to_v): Linear(in_features=1280, out_features=1280, bias=False)
          (to_out): ModuleList(
            (0): Linear(in_features=1280, out_features=1280, bias=True)
            (1): Dropout(p=0.0, inplace=False)
          )
          (processor): AnimationAttnProcessor()
        )
        (norm2): LayerNorm((1280,), eps=1e-05, elementwise_affine=True)
        (attn2): Attention(
          (to_q): Linear(in_features=1280, out_features=1280, bias=False)
          (to_k): Linear(in_features=1024, out_features=1280, bias=False)
          (to_v): Linear(in_features=1024, out_features=1280, bias=False)
          (to_out): ModuleList(
            (0): Linear(in_features=1280, out_features=1280, bias=True)
            (1): Dropout(p=0.0, inplace=False)
          )
          (processor): AnimationIDAttnNormalizedProcessor(
            (id_to_k): Linear(in_features=1024, out_features=1280, bias=False)
            (id_to_v): Linear(in_features=1024, out_features=1280, bias=False)
          )
        )
        (norm3): LayerNorm((1280,), eps=1e-05, elementwise_affine=True)
        (ff): FeedForward(
          (net): ModuleList(
            (0): GEGLU(
              (proj): Linear(in_features=1280, out_features=10240, bias=True)
            )
            (1): Dropout(p=0.0, inplace=False)
            (2): Linear(in_features=5120, out_features=1280, bias=True)
          )
        )
      )
    )
    (temporal_transformer_blocks): ModuleList(
      (0): TemporalBasicTransformerBlock(
        (norm_in): LayerNorm((1280,), eps=1e-05, elementwise_affine=True)
        (ff_in): FeedForward(
          (net): ModuleList(
            (0): GEGLU(
              (proj): Linear(in_features=1280, out_features=10240, bias=True)
            )
            (1): Dropout(p=0.0, inplace=False)
            (2): Linear(in_features=5120, out_features=1280, bias=True)
          )
        )
        (norm1): LayerNorm((1280,), eps=1e-05, elementwise_affine=True)
        (attn1): Attention(
          (to_q): Linear(in_features=1280, out_features=1280, bias=False)
          (to_k): Linear(in_features=1280, out_features=1280, bias=False)
          (to_v): Linear(in_features=1280, out_features=1280, bias=False)
          (to_out): ModuleList(
            (0): Linear(in_features=1280, out_features=1280, bias=True)
            (1): Dropout(p=0.0, inplace=False)
          )
        )
        (norm2): LayerNorm((1280,), eps=1e-05, elementwise_affine=True)
        (attn2): Attention(
          (to_q): Linear(in_features=1280, out_features=1280, bias=False)
          (to_k): Linear(in_features=1024, out_features=1280, bias=False)
          (to_v): Linear(in_features=1024, out_features=1280, bias=False)
          (to_out): ModuleList(
            (0): Linear(in_features=1280, out_features=1280, bias=True)
            (1): Dropout(p=0.0, inplace=False)
          )
        )
        (norm3): LayerNorm((1280,), eps=1e-05, elementwise_affine=True)
        (ff): FeedForward(
          (net): ModuleList(
            (0): GEGLU(
              (proj): Linear(in_features=1280, out_features=10240, bias=True)
            )
            (1): Dropout(p=0.0, inplace=False)
            (2): Linear(in_features=5120, out_features=1280, bias=True)
          )
        )
      )
    )
    (time_pos_embed): TimestepEmbedding(
      (linear_1): Linear(in_features=1280, out_features=5120, bias=True)
      (act): SiLU()
      (linear_2): Linear(in_features=5120, out_features=1280, bias=True)
    )
    (time_proj): Timesteps()
    (time_mixer): AlphaBlender()
    (proj_out): Linear(in_features=1280, out_features=1280, bias=True)
  )
)
module.mid_block.attentions.0: TransformerSpatioTemporalModel(
  (norm): GroupNorm(32, 1280, eps=1e-06, affine=True)
  (proj_in): Linear(in_features=1280, out_features=1280, bias=True)
  (transformer_blocks): ModuleList(
    (0): BasicTransformerBlock(
      (norm1): LayerNorm((1280,), eps=1e-05, elementwise_affine=True)
      (attn1): Attention(
        (to_q): Linear(in_features=1280, out_features=1280, bias=False)
        (to_k): Linear(in_features=1280, out_features=1280, bias=False)
        (to_v): Linear(in_features=1280, out_features=1280, bias=False)
        (to_out): ModuleList(
          (0): Linear(in_features=1280, out_features=1280, bias=True)
          (1): Dropout(p=0.0, inplace=False)
        )
        (processor): AnimationAttnProcessor()
      )
      (norm2): LayerNorm((1280,), eps=1e-05, elementwise_affine=True)
      (attn2): Attention(
        (to_q): Linear(in_features=1280, out_features=1280, bias=False)
        (to_k): Linear(in_features=1024, out_features=1280, bias=False)
        (to_v): Linear(in_features=1024, out_features=1280, bias=False)
        (to_out): ModuleList(
          (0): Linear(in_features=1280, out_features=1280, bias=True)
          (1): Dropout(p=0.0, inplace=False)
        )
        (processor): AnimationIDAttnNormalizedProcessor(
          (id_to_k): Linear(in_features=1024, out_features=1280, bias=False)
          (id_to_v): Linear(in_features=1024, out_features=1280, bias=False)
        )
      )
      (norm3): LayerNorm((1280,), eps=1e-05, elementwise_affine=True)
      (ff): FeedForward(
        (net): ModuleList(
          (0): GEGLU(
            (proj): Linear(in_features=1280, out_features=10240, bias=True)
          )
          (1): Dropout(p=0.0, inplace=False)
          (2): Linear(in_features=5120, out_features=1280, bias=True)
        )
      )
    )
  )
  (temporal_transformer_blocks): ModuleList(
    (0): TemporalBasicTransformerBlock(
      (norm_in): LayerNorm((1280,), eps=1e-05, elementwise_affine=True)
      (ff_in): FeedForward(
        (net): ModuleList(
          (0): GEGLU(
            (proj): Linear(in_features=1280, out_features=10240, bias=True)
          )
          (1): Dropout(p=0.0, inplace=False)
          (2): Linear(in_features=5120, out_features=1280, bias=True)
        )
      )
      (norm1): LayerNorm((1280,), eps=1e-05, elementwise_affine=True)
      (attn1): Attention(
        (to_q): Linear(in_features=1280, out_features=1280, bias=False)
        (to_k): Linear(in_features=1280, out_features=1280, bias=False)
        (to_v): Linear(in_features=1280, out_features=1280, bias=False)
        (to_out): ModuleList(
          (0): Linear(in_features=1280, out_features=1280, bias=True)
          (1): Dropout(p=0.0, inplace=False)
        )
      )
      (norm2): LayerNorm((1280,), eps=1e-05, elementwise_affine=True)
      (attn2): Attention(
        (to_q): Linear(in_features=1280, out_features=1280, bias=False)
        (to_k): Linear(in_features=1024, out_features=1280, bias=False)
        (to_v): Linear(in_features=1024, out_features=1280, bias=False)
        (to_out): ModuleList(
          (0): Linear(in_features=1280, out_features=1280, bias=True)
          (1): Dropout(p=0.0, inplace=False)
        )
      )
      (norm3): LayerNorm((1280,), eps=1e-05, elementwise_affine=True)
      (ff): FeedForward(
        (net): ModuleList(
          (0): GEGLU(
            (proj): Linear(in_features=1280, out_features=10240, bias=True)
          )
          (1): Dropout(p=0.0, inplace=False)
          (2): Linear(in_features=5120, out_features=1280, bias=True)
        )
      )
    )
  )
  (time_pos_embed): TimestepEmbedding(
    (linear_1): Linear(in_features=1280, out_features=5120, bias=True)
    (act): SiLU()
    (linear_2): Linear(in_features=5120, out_features=1280, bias=True)
  )
  (time_proj): Timesteps()
  (time_mixer): AlphaBlender()
  (proj_out): Linear(in_features=1280, out_features=1280, bias=True)
)
module.mid_block.attentions.0.norm: GroupNorm(32, 1280, eps=1e-06, affine=True)
module.mid_block.attentions.0.proj_in: Linear(in_features=1280, out_features=1280, bias=True)
module.mid_block.attentions.0.transformer_blocks: ModuleList(
  (0): BasicTransformerBlock(
    (norm1): LayerNorm((1280,), eps=1e-05, elementwise_affine=True)
    (attn1): Attention(
      (to_q): Linear(in_features=1280, out_features=1280, bias=False)
      (to_k): Linear(in_features=1280, out_features=1280, bias=False)
      (to_v): Linear(in_features=1280, out_features=1280, bias=False)
      (to_out): ModuleList(
        (0): Linear(in_features=1280, out_features=1280, bias=True)
        (1): Dropout(p=0.0, inplace=False)
      )
      (processor): AnimationAttnProcessor()
    )
    (norm2): LayerNorm((1280,), eps=1e-05, elementwise_affine=True)
    (attn2): Attention(
      (to_q): Linear(in_features=1280, out_features=1280, bias=False)
      (to_k): Linear(in_features=1024, out_features=1280, bias=False)
      (to_v): Linear(in_features=1024, out_features=1280, bias=False)
      (to_out): ModuleList(
        (0): Linear(in_features=1280, out_features=1280, bias=True)
        (1): Dropout(p=0.0, inplace=False)
      )
      (processor): AnimationIDAttnNormalizedProcessor(
        (id_to_k): Linear(in_features=1024, out_features=1280, bias=False)
        (id_to_v): Linear(in_features=1024, out_features=1280, bias=False)
      )
    )
    (norm3): LayerNorm((1280,), eps=1e-05, elementwise_affine=True)
    (ff): FeedForward(
      (net): ModuleList(
        (0): GEGLU(
          (proj): Linear(in_features=1280, out_features=10240, bias=True)
        )
        (1): Dropout(p=0.0, inplace=False)
        (2): Linear(in_features=5120, out_features=1280, bias=True)
      )
    )
  )
)
module.mid_block.attentions.0.transformer_blocks.0: BasicTransformerBlock(
  (norm1): LayerNorm((1280,), eps=1e-05, elementwise_affine=True)
  (attn1): Attention(
    (to_q): Linear(in_features=1280, out_features=1280, bias=False)
    (to_k): Linear(in_features=1280, out_features=1280, bias=False)
    (to_v): Linear(in_features=1280, out_features=1280, bias=False)
    (to_out): ModuleList(
      (0): Linear(in_features=1280, out_features=1280, bias=True)
      (1): Dropout(p=0.0, inplace=False)
    )
    (processor): AnimationAttnProcessor()
  )
  (norm2): LayerNorm((1280,), eps=1e-05, elementwise_affine=True)
  (attn2): Attention(
    (to_q): Linear(in_features=1280, out_features=1280, bias=False)
    (to_k): Linear(in_features=1024, out_features=1280, bias=False)
    (to_v): Linear(in_features=1024, out_features=1280, bias=False)
    (to_out): ModuleList(
      (0): Linear(in_features=1280, out_features=1280, bias=True)
      (1): Dropout(p=0.0, inplace=False)
    )
    (processor): AnimationIDAttnNormalizedProcessor(
      (id_to_k): Linear(in_features=1024, out_features=1280, bias=False)
      (id_to_v): Linear(in_features=1024, out_features=1280, bias=False)
    )
  )
  (norm3): LayerNorm((1280,), eps=1e-05, elementwise_affine=True)
  (ff): FeedForward(
    (net): ModuleList(
      (0): GEGLU(
        (proj): Linear(in_features=1280, out_features=10240, bias=True)
      )
      (1): Dropout(p=0.0, inplace=False)
      (2): Linear(in_features=5120, out_features=1280, bias=True)
    )
  )
)
module.mid_block.attentions.0.transformer_blocks.0.norm1: LayerNorm((1280,), eps=1e-05, elementwise_affine=True)
module.mid_block.attentions.0.transformer_blocks.0.attn1: Attention(
  (to_q): Linear(in_features=1280, out_features=1280, bias=False)
  (to_k): Linear(in_features=1280, out_features=1280, bias=False)
  (to_v): Linear(in_features=1280, out_features=1280, bias=False)
  (to_out): ModuleList(
    (0): Linear(in_features=1280, out_features=1280, bias=True)
    (1): Dropout(p=0.0, inplace=False)
  )
  (processor): AnimationAttnProcessor()
)
module.mid_block.attentions.0.transformer_blocks.0.attn1.to_q: Linear(in_features=1280, out_features=1280, bias=False)
module.mid_block.attentions.0.transformer_blocks.0.attn1.to_k: Linear(in_features=1280, out_features=1280, bias=False)
module.mid_block.attentions.0.transformer_blocks.0.attn1.to_v: Linear(in_features=1280, out_features=1280, bias=False)
module.mid_block.attentions.0.transformer_blocks.0.attn1.to_out: ModuleList(
  (0): Linear(in_features=1280, out_features=1280, bias=True)
  (1): Dropout(p=0.0, inplace=False)
)
module.mid_block.attentions.0.transformer_blocks.0.attn1.to_out.0: Linear(in_features=1280, out_features=1280, bias=True)
module.mid_block.attentions.0.transformer_blocks.0.attn1.to_out.1: Dropout(p=0.0, inplace=False)
module.mid_block.attentions.0.transformer_blocks.0.attn1.processor: AnimationAttnProcessor()
module.mid_block.attentions.0.transformer_blocks.0.norm2: LayerNorm((1280,), eps=1e-05, elementwise_affine=True)
module.mid_block.attentions.0.transformer_blocks.0.attn2: Attention(
  (to_q): Linear(in_features=1280, out_features=1280, bias=False)
  (to_k): Linear(in_features=1024, out_features=1280, bias=False)
  (to_v): Linear(in_features=1024, out_features=1280, bias=False)
  (to_out): ModuleList(
    (0): Linear(in_features=1280, out_features=1280, bias=True)
    (1): Dropout(p=0.0, inplace=False)
  )
  (processor): AnimationIDAttnNormalizedProcessor(
    (id_to_k): Linear(in_features=1024, out_features=1280, bias=False)
    (id_to_v): Linear(in_features=1024, out_features=1280, bias=False)
  )
)
module.mid_block.attentions.0.transformer_blocks.0.attn2.to_q: Linear(in_features=1280, out_features=1280, bias=False)
module.mid_block.attentions.0.transformer_blocks.0.attn2.to_k: Linear(in_features=1024, out_features=1280, bias=False)
module.mid_block.attentions.0.transformer_blocks.0.attn2.to_v: Linear(in_features=1024, out_features=1280, bias=False)
module.mid_block.attentions.0.transformer_blocks.0.attn2.to_out: ModuleList(
  (0): Linear(in_features=1280, out_features=1280, bias=True)
  (1): Dropout(p=0.0, inplace=False)
)
module.mid_block.attentions.0.transformer_blocks.0.attn2.to_out.0: Linear(in_features=1280, out_features=1280, bias=True)
module.mid_block.attentions.0.transformer_blocks.0.attn2.to_out.1: Dropout(p=0.0, inplace=False)
module.mid_block.attentions.0.transformer_blocks.0.attn2.processor: AnimationIDAttnNormalizedProcessor(
  (id_to_k): Linear(in_features=1024, out_features=1280, bias=False)
  (id_to_v): Linear(in_features=1024, out_features=1280, bias=False)
)
module.mid_block.attentions.0.transformer_blocks.0.attn2.processor.id_to_k: Linear(in_features=1024, out_features=1280, bias=False)
module.mid_block.attentions.0.transformer_blocks.0.attn2.processor.id_to_v: Linear(in_features=1024, out_features=1280, bias=False)
module.mid_block.attentions.0.transformer_blocks.0.norm3: LayerNorm((1280,), eps=1e-05, elementwise_affine=True)
module.mid_block.attentions.0.transformer_blocks.0.ff: FeedForward(
  (net): ModuleList(
    (0): GEGLU(
      (proj): Linear(in_features=1280, out_features=10240, bias=True)
    )
    (1): Dropout(p=0.0, inplace=False)
    (2): Linear(in_features=5120, out_features=1280, bias=True)
  )
)
module.mid_block.attentions.0.transformer_blocks.0.ff.net: ModuleList(
  (0): GEGLU(
    (proj): Linear(in_features=1280, out_features=10240, bias=True)
  )
  (1): Dropout(p=0.0, inplace=False)
  (2): Linear(in_features=5120, out_features=1280, bias=True)
)
module.mid_block.attentions.0.transformer_blocks.0.ff.net.0: GEGLU(
  (proj): Linear(in_features=1280, out_features=10240, bias=True)
)
module.mid_block.attentions.0.transformer_blocks.0.ff.net.0.proj: Linear(in_features=1280, out_features=10240, bias=True)
module.mid_block.attentions.0.transformer_blocks.0.ff.net.1: Dropout(p=0.0, inplace=False)
module.mid_block.attentions.0.transformer_blocks.0.ff.net.2: Linear(in_features=5120, out_features=1280, bias=True)
module.mid_block.attentions.0.temporal_transformer_blocks: ModuleList(
  (0): TemporalBasicTransformerBlock(
    (norm_in): LayerNorm((1280,), eps=1e-05, elementwise_affine=True)
    (ff_in): FeedForward(
      (net): ModuleList(
        (0): GEGLU(
          (proj): Linear(in_features=1280, out_features=10240, bias=True)
        )
        (1): Dropout(p=0.0, inplace=False)
        (2): Linear(in_features=5120, out_features=1280, bias=True)
      )
    )
    (norm1): LayerNorm((1280,), eps=1e-05, elementwise_affine=True)
    (attn1): Attention(
      (to_q): Linear(in_features=1280, out_features=1280, bias=False)
      (to_k): Linear(in_features=1280, out_features=1280, bias=False)
      (to_v): Linear(in_features=1280, out_features=1280, bias=False)
      (to_out): ModuleList(
        (0): Linear(in_features=1280, out_features=1280, bias=True)
        (1): Dropout(p=0.0, inplace=False)
      )
    )
    (norm2): LayerNorm((1280,), eps=1e-05, elementwise_affine=True)
    (attn2): Attention(
      (to_q): Linear(in_features=1280, out_features=1280, bias=False)
      (to_k): Linear(in_features=1024, out_features=1280, bias=False)
      (to_v): Linear(in_features=1024, out_features=1280, bias=False)
      (to_out): ModuleList(
        (0): Linear(in_features=1280, out_features=1280, bias=True)
        (1): Dropout(p=0.0, inplace=False)
      )
    )
    (norm3): LayerNorm((1280,), eps=1e-05, elementwise_affine=True)
    (ff): FeedForward(
      (net): ModuleList(
        (0): GEGLU(
          (proj): Linear(in_features=1280, out_features=10240, bias=True)
        )
        (1): Dropout(p=0.0, inplace=False)
        (2): Linear(in_features=5120, out_features=1280, bias=True)
      )
    )
  )
)
module.mid_block.attentions.0.temporal_transformer_blocks.0: TemporalBasicTransformerBlock(
  (norm_in): LayerNorm((1280,), eps=1e-05, elementwise_affine=True)
  (ff_in): FeedForward(
    (net): ModuleList(
      (0): GEGLU(
        (proj): Linear(in_features=1280, out_features=10240, bias=True)
      )
      (1): Dropout(p=0.0, inplace=False)
      (2): Linear(in_features=5120, out_features=1280, bias=True)
    )
  )
  (norm1): LayerNorm((1280,), eps=1e-05, elementwise_affine=True)
  (attn1): Attention(
    (to_q): Linear(in_features=1280, out_features=1280, bias=False)
    (to_k): Linear(in_features=1280, out_features=1280, bias=False)
    (to_v): Linear(in_features=1280, out_features=1280, bias=False)
    (to_out): ModuleList(
      (0): Linear(in_features=1280, out_features=1280, bias=True)
      (1): Dropout(p=0.0, inplace=False)
    )
  )
  (norm2): LayerNorm((1280,), eps=1e-05, elementwise_affine=True)
  (attn2): Attention(
    (to_q): Linear(in_features=1280, out_features=1280, bias=False)
    (to_k): Linear(in_features=1024, out_features=1280, bias=False)
    (to_v): Linear(in_features=1024, out_features=1280, bias=False)
    (to_out): ModuleList(
      (0): Linear(in_features=1280, out_features=1280, bias=True)
      (1): Dropout(p=0.0, inplace=False)
    )
  )
  (norm3): LayerNorm((1280,), eps=1e-05, elementwise_affine=True)
  (ff): FeedForward(
    (net): ModuleList(
      (0): GEGLU(
        (proj): Linear(in_features=1280, out_features=10240, bias=True)
      )
      (1): Dropout(p=0.0, inplace=False)
      (2): Linear(in_features=5120, out_features=1280, bias=True)
    )
  )
)
module.mid_block.attentions.0.temporal_transformer_blocks.0.norm_in: LayerNorm((1280,), eps=1e-05, elementwise_affine=True)
module.mid_block.attentions.0.temporal_transformer_blocks.0.ff_in: FeedForward(
  (net): ModuleList(
    (0): GEGLU(
      (proj): Linear(in_features=1280, out_features=10240, bias=True)
    )
    (1): Dropout(p=0.0, inplace=False)
    (2): Linear(in_features=5120, out_features=1280, bias=True)
  )
)
module.mid_block.attentions.0.temporal_transformer_blocks.0.ff_in.net: ModuleList(
  (0): GEGLU(
    (proj): Linear(in_features=1280, out_features=10240, bias=True)
  )
  (1): Dropout(p=0.0, inplace=False)
  (2): Linear(in_features=5120, out_features=1280, bias=True)
)
module.mid_block.attentions.0.temporal_transformer_blocks.0.ff_in.net.0: GEGLU(
  (proj): Linear(in_features=1280, out_features=10240, bias=True)
)
module.mid_block.attentions.0.temporal_transformer_blocks.0.ff_in.net.0.proj: Linear(in_features=1280, out_features=10240, bias=True)
module.mid_block.attentions.0.temporal_transformer_blocks.0.ff_in.net.1: Dropout(p=0.0, inplace=False)
module.mid_block.attentions.0.temporal_transformer_blocks.0.ff_in.net.2: Linear(in_features=5120, out_features=1280, bias=True)
module.mid_block.attentions.0.temporal_transformer_blocks.0.norm1: LayerNorm((1280,), eps=1e-05, elementwise_affine=True)
module.mid_block.attentions.0.temporal_transformer_blocks.0.attn1: Attention(
  (to_q): Linear(in_features=1280, out_features=1280, bias=False)
  (to_k): Linear(in_features=1280, out_features=1280, bias=False)
  (to_v): Linear(in_features=1280, out_features=1280, bias=False)
  (to_out): ModuleList(
    (0): Linear(in_features=1280, out_features=1280, bias=True)
    (1): Dropout(p=0.0, inplace=False)
  )
)
module.mid_block.attentions.0.temporal_transformer_blocks.0.attn1.to_q: Linear(in_features=1280, out_features=1280, bias=False)
module.mid_block.attentions.0.temporal_transformer_blocks.0.attn1.to_k: Linear(in_features=1280, out_features=1280, bias=False)
module.mid_block.attentions.0.temporal_transformer_blocks.0.attn1.to_v: Linear(in_features=1280, out_features=1280, bias=False)
module.mid_block.attentions.0.temporal_transformer_blocks.0.attn1.to_out: ModuleList(
  (0): Linear(in_features=1280, out_features=1280, bias=True)
  (1): Dropout(p=0.0, inplace=False)
)
module.mid_block.attentions.0.temporal_transformer_blocks.0.attn1.to_out.0: Linear(in_features=1280, out_features=1280, bias=True)
module.mid_block.attentions.0.temporal_transformer_blocks.0.attn1.to_out.1: Dropout(p=0.0, inplace=False)
module.mid_block.attentions.0.temporal_transformer_blocks.0.norm2: LayerNorm((1280,), eps=1e-05, elementwise_affine=True)
module.mid_block.attentions.0.temporal_transformer_blocks.0.attn2: Attention(
  (to_q): Linear(in_features=1280, out_features=1280, bias=False)
  (to_k): Linear(in_features=1024, out_features=1280, bias=False)
  (to_v): Linear(in_features=1024, out_features=1280, bias=False)
  (to_out): ModuleList(
    (0): Linear(in_features=1280, out_features=1280, bias=True)
    (1): Dropout(p=0.0, inplace=False)
  )
)
module.mid_block.attentions.0.temporal_transformer_blocks.0.attn2.to_q: Linear(in_features=1280, out_features=1280, bias=False)
module.mid_block.attentions.0.temporal_transformer_blocks.0.attn2.to_k: Linear(in_features=1024, out_features=1280, bias=False)
module.mid_block.attentions.0.temporal_transformer_blocks.0.attn2.to_v: Linear(in_features=1024, out_features=1280, bias=False)
module.mid_block.attentions.0.temporal_transformer_blocks.0.attn2.to_out: ModuleList(
  (0): Linear(in_features=1280, out_features=1280, bias=True)
  (1): Dropout(p=0.0, inplace=False)
)
module.mid_block.attentions.0.temporal_transformer_blocks.0.attn2.to_out.0: Linear(in_features=1280, out_features=1280, bias=True)
module.mid_block.attentions.0.temporal_transformer_blocks.0.attn2.to_out.1: Dropout(p=0.0, inplace=False)
module.mid_block.attentions.0.temporal_transformer_blocks.0.norm3: LayerNorm((1280,), eps=1e-05, elementwise_affine=True)
module.mid_block.attentions.0.temporal_transformer_blocks.0.ff: FeedForward(
  (net): ModuleList(
    (0): GEGLU(
      (proj): Linear(in_features=1280, out_features=10240, bias=True)
    )
    (1): Dropout(p=0.0, inplace=False)
    (2): Linear(in_features=5120, out_features=1280, bias=True)
  )
)
module.mid_block.attentions.0.temporal_transformer_blocks.0.ff.net: ModuleList(
  (0): GEGLU(
    (proj): Linear(in_features=1280, out_features=10240, bias=True)
  )
  (1): Dropout(p=0.0, inplace=False)
  (2): Linear(in_features=5120, out_features=1280, bias=True)
)
module.mid_block.attentions.0.temporal_transformer_blocks.0.ff.net.0: GEGLU(
  (proj): Linear(in_features=1280, out_features=10240, bias=True)
)
module.mid_block.attentions.0.temporal_transformer_blocks.0.ff.net.0.proj: Linear(in_features=1280, out_features=10240, bias=True)
module.mid_block.attentions.0.temporal_transformer_blocks.0.ff.net.1: Dropout(p=0.0, inplace=False)
module.mid_block.attentions.0.temporal_transformer_blocks.0.ff.net.2: Linear(in_features=5120, out_features=1280, bias=True)
module.mid_block.attentions.0.time_pos_embed: TimestepEmbedding(
  (linear_1): Linear(in_features=1280, out_features=5120, bias=True)
  (act): SiLU()
  (linear_2): Linear(in_features=5120, out_features=1280, bias=True)
)
module.mid_block.attentions.0.time_pos_embed.linear_1: Linear(in_features=1280, out_features=5120, bias=True)
module.mid_block.attentions.0.time_pos_embed.linear_2: Linear(in_features=5120, out_features=1280, bias=True)
module.mid_block.attentions.0.time_proj: Timesteps()
module.mid_block.attentions.0.time_mixer: AlphaBlender()
module.mid_block.attentions.0.proj_out: Linear(in_features=1280, out_features=1280, bias=True)
module.mid_block.resnets: ModuleList(
  (0-1): 2 x SpatioTemporalResBlock(
    (spatial_res_block): ResnetBlock2D(
      (norm1): GroupNorm(32, 1280, eps=1e-05, affine=True)
      (conv1): Conv2d(1280, 1280, kernel_size=(3, 3), stride=(1, 1), padding=(1, 1))
      (time_emb_proj): Linear(in_features=1280, out_features=1280, bias=True)
      (norm2): GroupNorm(32, 1280, eps=1e-05, affine=True)
      (dropout): Dropout(p=0.0, inplace=False)
      (conv2): Conv2d(1280, 1280, kernel_size=(3, 3), stride=(1, 1), padding=(1, 1))
      (nonlinearity): SiLU()
    )
    (temporal_res_block): TemporalResnetBlock(
      (norm1): GroupNorm(32, 1280, eps=1e-05, affine=True)
      (conv1): Conv3d(1280, 1280, kernel_size=(3, 1, 1), stride=(1, 1, 1), padding=(1, 0, 0))
      (time_emb_proj): Linear(in_features=1280, out_features=1280, bias=True)
      (norm2): GroupNorm(32, 1280, eps=1e-05, affine=True)
      (dropout): Dropout(p=0.0, inplace=False)
      (conv2): Conv3d(1280, 1280, kernel_size=(3, 1, 1), stride=(1, 1, 1), padding=(1, 0, 0))
      (nonlinearity): SiLU()
    )
    (time_mixer): AlphaBlender()
  )
)
module.mid_block.resnets.0: SpatioTemporalResBlock(
  (spatial_res_block): ResnetBlock2D(
    (norm1): GroupNorm(32, 1280, eps=1e-05, affine=True)
    (conv1): Conv2d(1280, 1280, kernel_size=(3, 3), stride=(1, 1), padding=(1, 1))
    (time_emb_proj): Linear(in_features=1280, out_features=1280, bias=True)
    (norm2): GroupNorm(32, 1280, eps=1e-05, affine=True)
    (dropout): Dropout(p=0.0, inplace=False)
    (conv2): Conv2d(1280, 1280, kernel_size=(3, 3), stride=(1, 1), padding=(1, 1))
    (nonlinearity): SiLU()
  )
  (temporal_res_block): TemporalResnetBlock(
    (norm1): GroupNorm(32, 1280, eps=1e-05, affine=True)
    (conv1): Conv3d(1280, 1280, kernel_size=(3, 1, 1), stride=(1, 1, 1), padding=(1, 0, 0))
    (time_emb_proj): Linear(in_features=1280, out_features=1280, bias=True)
    (norm2): GroupNorm(32, 1280, eps=1e-05, affine=True)
    (dropout): Dropout(p=0.0, inplace=False)
    (conv2): Conv3d(1280, 1280, kernel_size=(3, 1, 1), stride=(1, 1, 1), padding=(1, 0, 0))
    (nonlinearity): SiLU()
  )
  (time_mixer): AlphaBlender()
)
module.mid_block.resnets.0.spatial_res_block: ResnetBlock2D(
  (norm1): GroupNorm(32, 1280, eps=1e-05, affine=True)
  (conv1): Conv2d(1280, 1280, kernel_size=(3, 3), stride=(1, 1), padding=(1, 1))
  (time_emb_proj): Linear(in_features=1280, out_features=1280, bias=True)
  (norm2): GroupNorm(32, 1280, eps=1e-05, affine=True)
  (dropout): Dropout(p=0.0, inplace=False)
  (conv2): Conv2d(1280, 1280, kernel_size=(3, 3), stride=(1, 1), padding=(1, 1))
  (nonlinearity): SiLU()
)
module.mid_block.resnets.0.spatial_res_block.norm1: GroupNorm(32, 1280, eps=1e-05, affine=True)
module.mid_block.resnets.0.spatial_res_block.conv1: Conv2d(1280, 1280, kernel_size=(3, 3), stride=(1, 1), padding=(1, 1))
module.mid_block.resnets.0.spatial_res_block.time_emb_proj: Linear(in_features=1280, out_features=1280, bias=True)
module.mid_block.resnets.0.spatial_res_block.norm2: GroupNorm(32, 1280, eps=1e-05, affine=True)
module.mid_block.resnets.0.spatial_res_block.dropout: Dropout(p=0.0, inplace=False)
module.mid_block.resnets.0.spatial_res_block.conv2: Conv2d(1280, 1280, kernel_size=(3, 3), stride=(1, 1), padding=(1, 1))
module.mid_block.resnets.0.temporal_res_block: TemporalResnetBlock(
  (norm1): GroupNorm(32, 1280, eps=1e-05, affine=True)
  (conv1): Conv3d(1280, 1280, kernel_size=(3, 1, 1), stride=(1, 1, 1), padding=(1, 0, 0))
  (time_emb_proj): Linear(in_features=1280, out_features=1280, bias=True)
  (norm2): GroupNorm(32, 1280, eps=1e-05, affine=True)
  (dropout): Dropout(p=0.0, inplace=False)
  (conv2): Conv3d(1280, 1280, kernel_size=(3, 1, 1), stride=(1, 1, 1), padding=(1, 0, 0))
  (nonlinearity): SiLU()
)
module.mid_block.resnets.0.temporal_res_block.norm1: GroupNorm(32, 1280, eps=1e-05, affine=True)
module.mid_block.resnets.0.temporal_res_block.conv1: Conv3d(1280, 1280, kernel_size=(3, 1, 1), stride=(1, 1, 1), padding=(1, 0, 0))
module.mid_block.resnets.0.temporal_res_block.time_emb_proj: Linear(in_features=1280, out_features=1280, bias=True)
…
